{"format": "graph-model", "generatedBy": "2.17.0", "convertedBy": "TensorFlow.js Converter v4.20.0", "signature": {"inputs": {"input_layer_9": {"name": "input_layer_9:0", "dtype": "DT_FLOAT", "tensorShape": {"dim": [{"size": "-1"}, {"size": "-1"}, {"size": "-1"}, {"size": "3"}]}}}, "outputs": {"Identity_1:0": {"name": "Identity_1:0", "dtype": "DT_FLOAT", "tensorShape": {"dim": [{"size": "-1"}, {"size": "-1"}, {"size": "-1"}, {"size": "1"}]}}, "Identity_3:0": {"name": "Identity_3:0", "dtype": "DT_FLOAT", "tensorShape": {"dim": [{"size": "-1"}, {"size": "-1"}, {"size": "-1"}, {"size": "1"}]}}, "Identity_2:0": {"name": "Identity_2:0", "dtype": "DT_FLOAT", "tensorShape": {"dim": [{"size": "-1"}, {"size": "-1"}, {"size": "-1"}, {"size": "1"}]}}, "Identity:0": {"name": "Identity:0", "dtype": "DT_FLOAT", "tensorShape": {"dim": [{"size": "-1"}, {"size": "-1"}, {"size": "-1"}, {"size": "1"}]}}}}, "modelTopology": {"node": [{"name": "StatefulPartitionedCall/functional_9_1/conv2d_transpose_36_1/strided_slice/stack", "op": "Const", "attr": {"dtype": {"type": "DT_INT32"}, "value": {"tensor": {"dtype": "DT_INT32", "tensorShape": {"dim": [{"size": "1"}]}}}}}, {"name": "StatefulPartitionedCall/functional_9_1/conv2d_transpose_36_1/strided_slice/stack_1", "op": "Const", "attr": {"dtype": {"type": "DT_INT32"}, "value": {"tensor": {"dtype": "DT_INT32", "tensorShape": {"dim": [{"size": "1"}]}}}}}, {"name": "StatefulPartitionedCall/functional_9_1/conv2d_transpose_36_1/strided_slice/stack_2", "op": "Const", "attr": {"dtype": {"type": "DT_INT32"}, "value": {"tensor": {"dtype": "DT_INT32", "tensorShape": {"dim": [{"size": "1"}]}}}}}, {"name": "StatefulPartitionedCall/functional_9_1/conv2d_transpose_36_1/strided_slice_1/stack", "op": "Const", "attr": {"dtype": {"type": "DT_INT32"}, "value": {"tensor": {"dtype": "DT_INT32", "tensorShape": {"dim": [{"size": "1"}]}}}}}, {"name": "StatefulPartitionedCall/functional_9_1/conv2d_transpose_36_1/strided_slice_1/stack_1", "op": "Const", "attr": {"dtype": {"type": "DT_INT32"}, "value": {"tensor": {"dtype": "DT_INT32", "tensorShape": {"dim": [{"size": "1"}]}}}}}, {"name": "StatefulPartitionedCall/functional_9_1/conv2d_transpose_36_1/strided_slice_1/stack_2", "op": "Const", "attr": {"dtype": {"type": "DT_INT32"}, "value": {"tensor": {"dtype": "DT_INT32", "tensorShape": {"dim": [{"size": "1"}]}}}}}, {"name": "StatefulPartitionedCall/functional_9_1/conv2d_transpose_36_1/mul/y", "op": "Const", "attr": {"dtype": {"type": "DT_INT32"}, "value": {"tensor": {"dtype": "DT_INT32", "tensorShape": {}}}}}, {"name": "StatefulPartitionedCall/functional_9_1/conv2d_transpose_36_1/strided_slice_2/stack", "op": "Const", "attr": {"dtype": {"type": "DT_INT32"}, "value": {"tensor": {"dtype": "DT_INT32", "tensorShape": {"dim": [{"size": "1"}]}}}}}, {"name": "StatefulPartitionedCall/functional_9_1/conv2d_transpose_36_1/strided_slice_2/stack_1", "op": "Const", "attr": {"dtype": {"type": "DT_INT32"}, "value": {"tensor": {"dtype": "DT_INT32", "tensorShape": {"dim": [{"size": "1"}]}}}}}, {"name": "StatefulPartitionedCall/functional_9_1/conv2d_transpose_36_1/strided_slice_2/stack_2", "op": "Const", "attr": {"dtype": {"type": "DT_INT32"}, "value": {"tensor": {"dtype": "DT_INT32", "tensorShape": {"dim": [{"size": "1"}]}}}}}, {"name": "StatefulPartitionedCall/functional_9_1/conv2d_transpose_36_1/mul_1/y", "op": "Const", "attr": {"dtype": {"type": "DT_INT32"}, "value": {"tensor": {"dtype": "DT_INT32", "tensorShape": {}}}}}, {"name": "StatefulPartitionedCall/functional_9_1/conv2d_transpose_36_1/conv_transpose/input_sizes/3", "op": "Const", "attr": {"dtype": {"type": "DT_INT32"}, "value": {"tensor": {"dtype": "DT_INT32", "tensorShape": {}}}}}, {"name": "StatefulPartitionedCall/functional_9_1/conv2d_transpose_36_1/conv_transpose/ReadVariableOp", "op": "Const", "attr": {"value": {"tensor": {"dtype": "DT_FLOAT", "tensorShape": {"dim": [{"size": "4"}, {"size": "4"}, {"size": "1"}, {"size": "1"}]}}}, "dtype": {"type": "DT_FLOAT"}}}, {"name": "StatefulPartitionedCall/functional_9_1/conv2d_122_1/convolution/ReadVariableOp", "op": "Const", "attr": {"value": {"tensor": {"dtype": "DT_FLOAT", "tensorShape": {"dim": [{"size": "1"}, {"size": "1"}, {"size": "16"}, {"size": "1"}]}}}, "dtype": {"type": "DT_FLOAT"}}}, {"name": "StatefulPartitionedCall/functional_9_1/conv2d_122_1/Reshape", "op": "Const", "attr": {"dtype": {"type": "DT_FLOAT"}, "value": {"tensor": {"dtype": "DT_FLOAT", "tensorShape": {"dim": [{"size": "1"}, {"size": "1"}, {"size": "1"}, {"size": "1"}]}}}}}, {"name": "StatefulPartitionedCall/functional_9_1/conv2d_transpose_36_1/Reshape", "op": "Const", "attr": {"dtype": {"type": "DT_FLOAT"}, "value": {"tensor": {"dtype": "DT_FLOAT", "tensorShape": {"dim": [{"size": "1"}, {"size": "1"}, {"size": "1"}, {"size": "1"}]}}}}}, {"name": "StatefulPartitionedCall/functional_9_1/conv2d_transpose_37_1/strided_slice/stack", "op": "Const", "attr": {"dtype": {"type": "DT_INT32"}, "value": {"tensor": {"dtype": "DT_INT32", "tensorShape": {"dim": [{"size": "1"}]}}}}}, {"name": "StatefulPartitionedCall/functional_9_1/conv2d_transpose_37_1/strided_slice/stack_1", "op": "Const", "attr": {"dtype": {"type": "DT_INT32"}, "value": {"tensor": {"dtype": "DT_INT32", "tensorShape": {"dim": [{"size": "1"}]}}}}}, {"name": "StatefulPartitionedCall/functional_9_1/conv2d_transpose_37_1/strided_slice/stack_2", "op": "Const", "attr": {"value": {"tensor": {"dtype": "DT_INT32", "tensorShape": {"dim": [{"size": "1"}]}}}, "dtype": {"type": "DT_INT32"}}}, {"name": "StatefulPartitionedCall/functional_9_1/conv2d_transpose_37_1/strided_slice_1/stack", "op": "Const", "attr": {"dtype": {"type": "DT_INT32"}, "value": {"tensor": {"dtype": "DT_INT32", "tensorShape": {"dim": [{"size": "1"}]}}}}}, {"name": "StatefulPartitionedCall/functional_9_1/conv2d_transpose_37_1/strided_slice_1/stack_1", "op": "Const", "attr": {"value": {"tensor": {"dtype": "DT_INT32", "tensorShape": {"dim": [{"size": "1"}]}}}, "dtype": {"type": "DT_INT32"}}}, {"name": "StatefulPartitionedCall/functional_9_1/conv2d_transpose_37_1/strided_slice_1/stack_2", "op": "Const", "attr": {"dtype": {"type": "DT_INT32"}, "value": {"tensor": {"dtype": "DT_INT32", "tensorShape": {"dim": [{"size": "1"}]}}}}}, {"name": "StatefulPartitionedCall/functional_9_1/conv2d_transpose_37_1/mul/y", "op": "Const", "attr": {"dtype": {"type": "DT_INT32"}, "value": {"tensor": {"dtype": "DT_INT32", "tensorShape": {}}}}}, {"name": "StatefulPartitionedCall/functional_9_1/conv2d_transpose_37_1/strided_slice_2/stack", "op": "Const", "attr": {"value": {"tensor": {"dtype": "DT_INT32", "tensorShape": {"dim": [{"size": "1"}]}}}, "dtype": {"type": "DT_INT32"}}}, {"name": "StatefulPartitionedCall/functional_9_1/conv2d_transpose_37_1/strided_slice_2/stack_1", "op": "Const", "attr": {"dtype": {"type": "DT_INT32"}, "value": {"tensor": {"dtype": "DT_INT32", "tensorShape": {"dim": [{"size": "1"}]}}}}}, {"name": "StatefulPartitionedCall/functional_9_1/conv2d_transpose_37_1/strided_slice_2/stack_2", "op": "Const", "attr": {"dtype": {"type": "DT_INT32"}, "value": {"tensor": {"dtype": "DT_INT32", "tensorShape": {"dim": [{"size": "1"}]}}}}}, {"name": "StatefulPartitionedCall/functional_9_1/conv2d_transpose_37_1/mul_1/y", "op": "Const", "attr": {"dtype": {"type": "DT_INT32"}, "value": {"tensor": {"dtype": "DT_INT32", "tensorShape": {}}}}}, {"name": "StatefulPartitionedCall/functional_9_1/conv2d_transpose_37_1/conv_transpose/input_sizes/3", "op": "Const", "attr": {"value": {"tensor": {"dtype": "DT_INT32", "tensorShape": {}}}, "dtype": {"type": "DT_INT32"}}}, {"name": "StatefulPartitionedCall/functional_9_1/conv2d_transpose_37_1/conv_transpose/ReadVariableOp", "op": "Const", "attr": {"value": {"tensor": {"dtype": "DT_FLOAT", "tensorShape": {"dim": [{"size": "4"}, {"size": "4"}, {"size": "1"}, {"size": "1"}]}}}, "dtype": {"type": "DT_FLOAT"}}}, {"name": "StatefulPartitionedCall/functional_9_1/conv2d_123_1/convolution/ReadVariableOp", "op": "Const", "attr": {"dtype": {"type": "DT_FLOAT"}, "value": {"tensor": {"dtype": "DT_FLOAT", "tensorShape": {"dim": [{"size": "1"}, {"size": "1"}, {"size": "32"}, {"size": "1"}]}}}}}, {"name": "StatefulPartitionedCall/functional_9_1/conv2d_123_1/Reshape", "op": "Const", "attr": {"dtype": {"type": "DT_FLOAT"}, "value": {"tensor": {"dtype": "DT_FLOAT", "tensorShape": {"dim": [{"size": "1"}, {"size": "1"}, {"size": "1"}, {"size": "1"}]}}}}}, {"name": "StatefulPartitionedCall/functional_9_1/conv2d_transpose_37_1/Reshape", "op": "Const", "attr": {"value": {"tensor": {"dtype": "DT_FLOAT", "tensorShape": {"dim": [{"size": "1"}, {"size": "1"}, {"size": "1"}, {"size": "1"}]}}}, "dtype": {"type": "DT_FLOAT"}}}, {"name": "StatefulPartitionedCall/functional_9_1/conv2d_transpose_39_1/strided_slice/stack", "op": "Const", "attr": {"dtype": {"type": "DT_INT32"}, "value": {"tensor": {"dtype": "DT_INT32", "tensorShape": {"dim": [{"size": "1"}]}}}}}, {"name": "StatefulPartitionedCall/functional_9_1/conv2d_transpose_39_1/strided_slice/stack_1", "op": "Const", "attr": {"dtype": {"type": "DT_INT32"}, "value": {"tensor": {"dtype": "DT_INT32", "tensorShape": {"dim": [{"size": "1"}]}}}}}, {"name": "StatefulPartitionedCall/functional_9_1/conv2d_transpose_39_1/strided_slice/stack_2", "op": "Const", "attr": {"dtype": {"type": "DT_INT32"}, "value": {"tensor": {"dtype": "DT_INT32", "tensorShape": {"dim": [{"size": "1"}]}}}}}, {"name": "StatefulPartitionedCall/functional_9_1/conv2d_transpose_39_1/strided_slice_1/stack", "op": "Const", "attr": {"value": {"tensor": {"dtype": "DT_INT32", "tensorShape": {"dim": [{"size": "1"}]}}}, "dtype": {"type": "DT_INT32"}}}, {"name": "StatefulPartitionedCall/functional_9_1/conv2d_transpose_39_1/strided_slice_1/stack_1", "op": "Const", "attr": {"dtype": {"type": "DT_INT32"}, "value": {"tensor": {"dtype": "DT_INT32", "tensorShape": {"dim": [{"size": "1"}]}}}}}, {"name": "StatefulPartitionedCall/functional_9_1/conv2d_transpose_39_1/strided_slice_1/stack_2", "op": "Const", "attr": {"dtype": {"type": "DT_INT32"}, "value": {"tensor": {"dtype": "DT_INT32", "tensorShape": {"dim": [{"size": "1"}]}}}}}, {"name": "StatefulPartitionedCall/functional_9_1/conv2d_transpose_39_1/mul/y", "op": "Const", "attr": {"dtype": {"type": "DT_INT32"}, "value": {"tensor": {"dtype": "DT_INT32", "tensorShape": {}}}}}, {"name": "StatefulPartitionedCall/functional_9_1/conv2d_transpose_39_1/strided_slice_2/stack", "op": "Const", "attr": {"value": {"tensor": {"dtype": "DT_INT32", "tensorShape": {"dim": [{"size": "1"}]}}}, "dtype": {"type": "DT_INT32"}}}, {"name": "StatefulPartitionedCall/functional_9_1/conv2d_transpose_39_1/strided_slice_2/stack_1", "op": "Const", "attr": {"value": {"tensor": {"dtype": "DT_INT32", "tensorShape": {"dim": [{"size": "1"}]}}}, "dtype": {"type": "DT_INT32"}}}, {"name": "StatefulPartitionedCall/functional_9_1/conv2d_transpose_39_1/strided_slice_2/stack_2", "op": "Const", "attr": {"dtype": {"type": "DT_INT32"}, "value": {"tensor": {"dtype": "DT_INT32", "tensorShape": {"dim": [{"size": "1"}]}}}}}, {"name": "StatefulPartitionedCall/functional_9_1/conv2d_transpose_39_1/mul_1/y", "op": "Const", "attr": {"dtype": {"type": "DT_INT32"}, "value": {"tensor": {"dtype": "DT_INT32", "tensorShape": {}}}}}, {"name": "StatefulPartitionedCall/functional_9_1/conv2d_transpose_39_1/conv_transpose/input_sizes/3", "op": "Const", "attr": {"dtype": {"type": "DT_INT32"}, "value": {"tensor": {"dtype": "DT_INT32", "tensorShape": {}}}}}, {"name": "StatefulPartitionedCall/functional_9_1/conv2d_transpose_39_1/conv_transpose/ReadVariableOp", "op": "Const", "attr": {"dtype": {"type": "DT_FLOAT"}, "value": {"tensor": {"dtype": "DT_FLOAT", "tensorShape": {"dim": [{"size": "4"}, {"size": "4"}, {"size": "1"}, {"size": "1"}]}}}}}, {"name": "StatefulPartitionedCall/functional_9_1/conv2d_transpose_38_1/strided_slice/stack", "op": "Const", "attr": {"value": {"tensor": {"dtype": "DT_INT32", "tensorShape": {"dim": [{"size": "1"}]}}}, "dtype": {"type": "DT_INT32"}}}, {"name": "StatefulPartitionedCall/functional_9_1/conv2d_transpose_38_1/strided_slice/stack_1", "op": "Const", "attr": {"dtype": {"type": "DT_INT32"}, "value": {"tensor": {"dtype": "DT_INT32", "tensorShape": {"dim": [{"size": "1"}]}}}}}, {"name": "StatefulPartitionedCall/functional_9_1/conv2d_transpose_38_1/strided_slice/stack_2", "op": "Const", "attr": {"value": {"tensor": {"dtype": "DT_INT32", "tensorShape": {"dim": [{"size": "1"}]}}}, "dtype": {"type": "DT_INT32"}}}, {"name": "StatefulPartitionedCall/functional_9_1/conv2d_transpose_38_1/strided_slice_1/stack", "op": "Const", "attr": {"dtype": {"type": "DT_INT32"}, "value": {"tensor": {"dtype": "DT_INT32", "tensorShape": {"dim": [{"size": "1"}]}}}}}, {"name": "StatefulPartitionedCall/functional_9_1/conv2d_transpose_38_1/strided_slice_1/stack_1", "op": "Const", "attr": {"dtype": {"type": "DT_INT32"}, "value": {"tensor": {"dtype": "DT_INT32", "tensorShape": {"dim": [{"size": "1"}]}}}}}, {"name": "StatefulPartitionedCall/functional_9_1/conv2d_transpose_38_1/strided_slice_1/stack_2", "op": "Const", "attr": {"value": {"tensor": {"dtype": "DT_INT32", "tensorShape": {"dim": [{"size": "1"}]}}}, "dtype": {"type": "DT_INT32"}}}, {"name": "StatefulPartitionedCall/functional_9_1/conv2d_transpose_38_1/mul/y", "op": "Const", "attr": {"value": {"tensor": {"dtype": "DT_INT32", "tensorShape": {}}}, "dtype": {"type": "DT_INT32"}}}, {"name": "StatefulPartitionedCall/functional_9_1/conv2d_transpose_38_1/strided_slice_2/stack", "op": "Const", "attr": {"value": {"tensor": {"dtype": "DT_INT32", "tensorShape": {"dim": [{"size": "1"}]}}}, "dtype": {"type": "DT_INT32"}}}, {"name": "StatefulPartitionedCall/functional_9_1/conv2d_transpose_38_1/strided_slice_2/stack_1", "op": "Const", "attr": {"value": {"tensor": {"dtype": "DT_INT32", "tensorShape": {"dim": [{"size": "1"}]}}}, "dtype": {"type": "DT_INT32"}}}, {"name": "StatefulPartitionedCall/functional_9_1/conv2d_transpose_38_1/strided_slice_2/stack_2", "op": "Const", "attr": {"value": {"tensor": {"dtype": "DT_INT32", "tensorShape": {"dim": [{"size": "1"}]}}}, "dtype": {"type": "DT_INT32"}}}, {"name": "StatefulPartitionedCall/functional_9_1/conv2d_transpose_38_1/mul_1/y", "op": "Const", "attr": {"dtype": {"type": "DT_INT32"}, "value": {"tensor": {"dtype": "DT_INT32", "tensorShape": {}}}}}, {"name": "StatefulPartitionedCall/functional_9_1/conv2d_transpose_38_1/conv_transpose/input_sizes/3", "op": "Const", "attr": {"value": {"tensor": {"dtype": "DT_INT32", "tensorShape": {}}}, "dtype": {"type": "DT_INT32"}}}, {"name": "StatefulPartitionedCall/functional_9_1/conv2d_transpose_38_1/conv_transpose/ReadVariableOp", "op": "Const", "attr": {"value": {"tensor": {"dtype": "DT_FLOAT", "tensorShape": {"dim": [{"size": "4"}, {"size": "4"}, {"size": "16"}, {"size": "16"}]}}}, "dtype": {"type": "DT_FLOAT"}}}, {"name": "StatefulPartitionedCall/functional_9_1/conv2d_116_1/convolution/ReadVariableOp", "op": "Const", "attr": {"dtype": {"type": "DT_FLOAT"}, "value": {"tensor": {"dtype": "DT_FLOAT", "tensorShape": {"dim": [{"size": "1"}, {"size": "1"}, {"size": "16"}, {"size": "32"}]}}}}}, {"name": "StatefulPartitionedCall/functional_9_1/conv2d_116_1/Reshape", "op": "Const", "attr": {"dtype": {"type": "DT_FLOAT"}, "value": {"tensor": {"dtype": "DT_FLOAT", "tensorShape": {"dim": [{"size": "1"}, {"size": "1"}, {"size": "1"}, {"size": "32"}]}}}}}, {"name": "StatefulPartitionedCall/functional_9_1/batch_normalization_74_1/batchnorm/mul", "op": "Const", "attr": {"dtype": {"type": "DT_FLOAT"}, "value": {"tensor": {"dtype": "DT_FLOAT", "tensorShape": {"dim": [{"size": "32"}]}}}}}, {"name": "StatefulPartitionedCall/functional_9_1/batch_normalization_74_1/batchnorm/sub", "op": "Const", "attr": {"value": {"tensor": {"dtype": "DT_FLOAT", "tensorShape": {"dim": [{"size": "32"}]}}}, "dtype": {"type": "DT_FLOAT"}}}, {"name": "StatefulPartitionedCall/functional_9_1/conv2d_120_1/convolution/ReadVariableOp", "op": "Const", "attr": {"value": {"tensor": {"dtype": "DT_FLOAT", "tensorShape": {"dim": [{"size": "3"}, {"size": "3"}, {"size": "32"}, {"size": "48"}]}}}, "dtype": {"type": "DT_FLOAT"}}}, {"name": "StatefulPartitionedCall/functional_9_1/conv2d_120_1/Reshape", "op": "Const", "attr": {"value": {"tensor": {"dtype": "DT_FLOAT", "tensorShape": {"dim": [{"size": "1"}, {"size": "1"}, {"size": "1"}, {"size": "48"}]}}}, "dtype": {"type": "DT_FLOAT"}}}, {"name": "StatefulPartitionedCall/functional_9_1/batch_normalization_78_1/batchnorm/mul", "op": "Const", "attr": {"value": {"tensor": {"dtype": "DT_FLOAT", "tensorShape": {"dim": [{"size": "48"}]}}}, "dtype": {"type": "DT_FLOAT"}}}, {"name": "StatefulPartitionedCall/functional_9_1/batch_normalization_78_1/batchnorm/sub", "op": "Const", "attr": {"value": {"tensor": {"dtype": "DT_FLOAT", "tensorShape": {"dim": [{"size": "48"}]}}}, "dtype": {"type": "DT_FLOAT"}}}, {"name": "StatefulPartitionedCall/functional_9_1/conv2d_121_1/convolution/ReadVariableOp", "op": "Const", "attr": {"value": {"tensor": {"dtype": "DT_FLOAT", "tensorShape": {"dim": [{"size": "3"}, {"size": "3"}, {"size": "48"}, {"size": "48"}]}}}, "dtype": {"type": "DT_FLOAT"}}}, {"name": "StatefulPartitionedCall/functional_9_1/conv2d_121_1/Reshape", "op": "Const", "attr": {"dtype": {"type": "DT_FLOAT"}, "value": {"tensor": {"dtype": "DT_FLOAT", "tensorShape": {"dim": [{"size": "1"}, {"size": "1"}, {"size": "1"}, {"size": "48"}]}}}}}, {"name": "StatefulPartitionedCall/functional_9_1/batch_normalization_79_1/batchnorm/mul", "op": "Const", "attr": {"dtype": {"type": "DT_FLOAT"}, "value": {"tensor": {"dtype": "DT_FLOAT", "tensorShape": {"dim": [{"size": "48"}]}}}}}, {"name": "StatefulPartitionedCall/functional_9_1/batch_normalization_79_1/batchnorm/sub", "op": "Const", "attr": {"dtype": {"type": "DT_FLOAT"}, "value": {"tensor": {"dtype": "DT_FLOAT", "tensorShape": {"dim": [{"size": "48"}]}}}}}, {"name": "StatefulPartitionedCall/functional_9_1/conv2d_114_1/convolution/ReadVariableOp", "op": "Const", "attr": {"dtype": {"type": "DT_FLOAT"}, "value": {"tensor": {"dtype": "DT_FLOAT", "tensorShape": {"dim": [{"size": "3"}, {"size": "3"}, {"size": "3"}, {"size": "16"}]}}}}}, {"name": "StatefulPartitionedCall/functional_9_1/conv2d_114_1/Reshape", "op": "Const", "attr": {"value": {"tensor": {"dtype": "DT_FLOAT", "tensorShape": {"dim": [{"size": "1"}, {"size": "1"}, {"size": "1"}, {"size": "16"}]}}}, "dtype": {"type": "DT_FLOAT"}}}, {"name": "StatefulPartitionedCall/functional_9_1/batch_normalization_72_1/batchnorm/mul", "op": "Const", "attr": {"dtype": {"type": "DT_FLOAT"}, "value": {"tensor": {"dtype": "DT_FLOAT", "tensorShape": {"dim": [{"size": "16"}]}}}}}, {"name": "StatefulPartitionedCall/functional_9_1/batch_normalization_72_1/batchnorm/sub", "op": "Const", "attr": {"dtype": {"type": "DT_FLOAT"}, "value": {"tensor": {"dtype": "DT_FLOAT", "tensorShape": {"dim": [{"size": "16"}]}}}}}, {"name": "StatefulPartitionedCall/functional_9_1/conv2d_115_1/convolution/ReadVariableOp", "op": "Const", "attr": {"value": {"tensor": {"dtype": "DT_FLOAT", "tensorShape": {"dim": [{"size": "3"}, {"size": "3"}, {"size": "16"}, {"size": "16"}]}}}, "dtype": {"type": "DT_FLOAT"}}}, {"name": "StatefulPartitionedCall/functional_9_1/conv2d_115_1/Reshape", "op": "Const", "attr": {"value": {"tensor": {"dtype": "DT_FLOAT", "tensorShape": {"dim": [{"size": "1"}, {"size": "1"}, {"size": "1"}, {"size": "16"}]}}}, "dtype": {"type": "DT_FLOAT"}}}, {"name": "StatefulPartitionedCall/functional_9_1/batch_normalization_73_1/batchnorm/mul", "op": "Const", "attr": {"dtype": {"type": "DT_FLOAT"}, "value": {"tensor": {"dtype": "DT_FLOAT", "tensorShape": {"dim": [{"size": "16"}]}}}}}, {"name": "StatefulPartitionedCall/functional_9_1/batch_normalization_73_1/batchnorm/sub", "op": "Const", "attr": {"value": {"tensor": {"dtype": "DT_FLOAT", "tensorShape": {"dim": [{"size": "16"}]}}}, "dtype": {"type": "DT_FLOAT"}}}, {"name": "StatefulPartitionedCall/functional_9_1/conv2d_117_1/convolution/ReadVariableOp", "op": "Const", "attr": {"dtype": {"type": "DT_FLOAT"}, "value": {"tensor": {"dtype": "DT_FLOAT", "tensorShape": {"dim": [{"size": "3"}, {"size": "3"}, {"size": "16"}, {"size": "32"}]}}}}}, {"name": "StatefulPartitionedCall/functional_9_1/conv2d_117_1/Reshape", "op": "Const", "attr": {"dtype": {"type": "DT_FLOAT"}, "value": {"tensor": {"dtype": "DT_FLOAT", "tensorShape": {"dim": [{"size": "1"}, {"size": "1"}, {"size": "1"}, {"size": "32"}]}}}}}, {"name": "StatefulPartitionedCall/functional_9_1/batch_normalization_75_1/batchnorm/mul", "op": "Const", "attr": {"dtype": {"type": "DT_FLOAT"}, "value": {"tensor": {"dtype": "DT_FLOAT", "tensorShape": {"dim": [{"size": "32"}]}}}}}, {"name": "StatefulPartitionedCall/functional_9_1/batch_normalization_75_1/batchnorm/sub", "op": "Const", "attr": {"value": {"tensor": {"dtype": "DT_FLOAT", "tensorShape": {"dim": [{"size": "32"}]}}}, "dtype": {"type": "DT_FLOAT"}}}, {"name": "StatefulPartitionedCall/functional_9_1/conv2d_118_1/convolution/ReadVariableOp", "op": "Const", "attr": {"value": {"tensor": {"dtype": "DT_FLOAT", "tensorShape": {"dim": [{"size": "3"}, {"size": "3"}, {"size": "32"}, {"size": "32"}]}}}, "dtype": {"type": "DT_FLOAT"}}}, {"name": "StatefulPartitionedCall/functional_9_1/conv2d_118_1/Reshape", "op": "Const", "attr": {"dtype": {"type": "DT_FLOAT"}, "value": {"tensor": {"dtype": "DT_FLOAT", "tensorShape": {"dim": [{"size": "1"}, {"size": "1"}, {"size": "1"}, {"size": "32"}]}}}}}, {"name": "StatefulPartitionedCall/functional_9_1/batch_normalization_76_1/batchnorm/mul", "op": "Const", "attr": {"value": {"tensor": {"dtype": "DT_FLOAT", "tensorShape": {"dim": [{"size": "32"}]}}}, "dtype": {"type": "DT_FLOAT"}}}, {"name": "StatefulPartitionedCall/functional_9_1/batch_normalization_76_1/batchnorm/sub", "op": "Const", "attr": {"value": {"tensor": {"dtype": "DT_FLOAT", "tensorShape": {"dim": [{"size": "32"}]}}}, "dtype": {"type": "DT_FLOAT"}}}, {"name": "StatefulPartitionedCall/functional_9_1/conv2d_119_1/convolution/ReadVariableOp", "op": "Const", "attr": {"value": {"tensor": {"dtype": "DT_FLOAT", "tensorShape": {"dim": [{"size": "1"}, {"size": "1"}, {"size": "32"}, {"size": "48"}]}}}, "dtype": {"type": "DT_FLOAT"}}}, {"name": "StatefulPartitionedCall/functional_9_1/conv2d_119_1/Reshape", "op": "Const", "attr": {"dtype": {"type": "DT_FLOAT"}, "value": {"tensor": {"dtype": "DT_FLOAT", "tensorShape": {"dim": [{"size": "1"}, {"size": "1"}, {"size": "1"}, {"size": "48"}]}}}}}, {"name": "StatefulPartitionedCall/functional_9_1/batch_normalization_77_1/batchnorm/mul", "op": "Const", "attr": {"dtype": {"type": "DT_FLOAT"}, "value": {"tensor": {"dtype": "DT_FLOAT", "tensorShape": {"dim": [{"size": "48"}]}}}}}, {"name": "StatefulPartitionedCall/functional_9_1/batch_normalization_77_1/batchnorm/sub", "op": "Const", "attr": {"value": {"tensor": {"dtype": "DT_FLOAT", "tensorShape": {"dim": [{"size": "48"}]}}}, "dtype": {"type": "DT_FLOAT"}}}, {"name": "StatefulPartitionedCall/functional_9_1/conv2d_124_1/convolution/ReadVariableOp", "op": "Const", "attr": {"value": {"tensor": {"dtype": "DT_FLOAT", "tensorShape": {"dim": [{"size": "1"}, {"size": "1"}, {"size": "48"}, {"size": "16"}]}}}, "dtype": {"type": "DT_FLOAT"}}}, {"name": "StatefulPartitionedCall/functional_9_1/conv2d_124_1/Reshape", "op": "Const", "attr": {"value": {"tensor": {"dtype": "DT_FLOAT", "tensorShape": {"dim": [{"size": "1"}, {"size": "1"}, {"size": "1"}, {"size": "16"}]}}}, "dtype": {"type": "DT_FLOAT"}}}, {"name": "StatefulPartitionedCall/functional_9_1/conv2d_transpose_38_1/Reshape", "op": "Const", "attr": {"dtype": {"type": "DT_FLOAT"}, "value": {"tensor": {"dtype": "DT_FLOAT", "tensorShape": {"dim": [{"size": "1"}, {"size": "1"}, {"size": "1"}, {"size": "16"}]}}}}}, {"name": "StatefulPartitionedCall/functional_9_1/conv2d_125_1/convolution/ReadVariableOp", "op": "Const", "attr": {"value": {"tensor": {"dtype": "DT_FLOAT", "tensorShape": {"dim": [{"size": "1"}, {"size": "1"}, {"size": "16"}, {"size": "1"}]}}}, "dtype": {"type": "DT_FLOAT"}}}, {"name": "StatefulPartitionedCall/functional_9_1/conv2d_125_1/Reshape", "op": "Const", "attr": {"value": {"tensor": {"dtype": "DT_FLOAT", "tensorShape": {"dim": [{"size": "1"}, {"size": "1"}, {"size": "1"}, {"size": "1"}]}}}, "dtype": {"type": "DT_FLOAT"}}}, {"name": "StatefulPartitionedCall/functional_9_1/conv2d_transpose_39_1/Reshape", "op": "Const", "attr": {"value": {"tensor": {"dtype": "DT_FLOAT", "tensorShape": {"dim": [{"size": "1"}, {"size": "1"}, {"size": "1"}, {"size": "1"}]}}}, "dtype": {"type": "DT_FLOAT"}}}, {"name": "StatefulPartitionedCall/functional_9_1/concatenate_9_1/concat/axis", "op": "Const", "attr": {"dtype": {"type": "DT_INT32"}, "value": {"tensor": {"dtype": "DT_INT32", "tensorShape": {}}}}}, {"name": "StatefulPartitionedCall/functional_9_1/depthwise_conv2d_18_1/depthwise/ReadVariableOp", "op": "Const", "attr": {"value": {"tensor": {"dtype": "DT_FLOAT", "tensorShape": {"dim": [{"size": "3"}, {"size": "3"}, {"size": "3"}, {"size": "8"}]}}}, "dtype": {"type": "DT_FLOAT"}}}, {"name": "StatefulPartitionedCall/functional_9_1/depthwise_conv2d_18_1/Reshape", "op": "Const", "attr": {"value": {"tensor": {"dtype": "DT_FLOAT", "tensorShape": {"dim": [{"size": "1"}, {"size": "1"}, {"size": "1"}, {"size": "24"}]}}}, "dtype": {"type": "DT_FLOAT"}}}, {"name": "StatefulPartitionedCall/functional_9_1/depthwise_conv2d_19_1/depthwise/ReadVariableOp", "op": "Const", "attr": {"dtype": {"type": "DT_FLOAT"}, "value": {"tensor": {"dtype": "DT_FLOAT", "tensorShape": {"dim": [{"size": "3"}, {"size": "3"}, {"size": "24"}, {"size": "1"}]}}}}}, {"name": "StatefulPartitionedCall/functional_9_1/depthwise_conv2d_19_1/Reshape", "op": "Const", "attr": {"dtype": {"type": "DT_FLOAT"}, "value": {"tensor": {"dtype": "DT_FLOAT", "tensorShape": {"dim": [{"size": "1"}, {"size": "1"}, {"size": "1"}, {"size": "24"}]}}}}}, {"name": "StatefulPartitionedCall/functional_9_1/conv2d_126_1/convolution/ReadVariableOp", "op": "Const", "attr": {"value": {"tensor": {"dtype": "DT_FLOAT", "tensorShape": {"dim": [{"size": "1"}, {"size": "1"}, {"size": "24"}, {"size": "1"}]}}}, "dtype": {"type": "DT_FLOAT"}}}, {"name": "StatefulPartitionedCall/functional_9_1/conv2d_126_1/Reshape", "op": "Const", "attr": {"dtype": {"type": "DT_FLOAT"}, "value": {"tensor": {"dtype": "DT_FLOAT", "tensorShape": {"dim": [{"size": "1"}, {"size": "1"}, {"size": "1"}, {"size": "1"}]}}}}}, {"name": "input_layer_9", "op": "Placeholder", "attr": {"shape": {"shape": {"dim": [{"size": "-1"}, {"size": "-1"}, {"size": "-1"}, {"size": "3"}]}}, "dtype": {"type": "DT_FLOAT"}}}, {"name": "StatefulPartitionedCall/functional_9_1/conv2d_114_1/add", "op": "_FusedConv2D", "input": ["input_layer_9", "StatefulPartitionedCall/functional_9_1/conv2d_114_1/convolution/ReadVariableOp", "StatefulPartitionedCall/functional_9_1/conv2d_114_1/Reshape"], "device": "/device:CPU:0", "attr": {"num_host_args": {"i": "0"}, "leakyrelu_alpha": {"f": 0.2}, "padding": {"s": "U0FNRQ=="}, "T": {"type": "DT_FLOAT"}, "explicit_paddings": {"list": {}}, "fused_ops": {"list": {"s": ["Qmlhc0FkZA=="]}}, "epsilon": {"f": 0.0}, "use_cudnn_on_gpu": {"b": true}, "num_args": {"i": "1"}, "strides": {"list": {"i": ["1", "2", "2", "1"]}}, "data_format": {"s": "TkhXQw=="}, "TArgs": {"list": {"type": ["DT_FLOAT"]}}, "dilations": {"list": {"i": ["1", "1", "1", "1"]}}, "filter_format": {"s": "SFdJTw=="}}}, {"name": "StatefulPartitionedCall/functional_9_1/batch_normalization_72_1/batchnorm/mul_1", "op": "Mul", "input": ["StatefulPartitionedCall/functional_9_1/conv2d_114_1/add", "StatefulPartitionedCall/functional_9_1/batch_normalization_72_1/batchnorm/mul"], "attr": {"T": {"type": "DT_FLOAT"}}}, {"name": "StatefulPartitionedCall/functional_9_1/batch_normalization_72_1/batchnorm/add_1", "op": "AddV2", "input": ["StatefulPartitionedCall/functional_9_1/batch_normalization_72_1/batchnorm/mul_1", "StatefulPartitionedCall/functional_9_1/batch_normalization_72_1/batchnorm/sub"], "attr": {"T": {"type": "DT_FLOAT"}}}, {"name": "StatefulPartitionedCall/functional_9_1/leaky_re_lu_36_1/LeakyRelu", "op": "LeakyRelu", "input": ["StatefulPartitionedCall/functional_9_1/batch_normalization_72_1/batchnorm/add_1"], "attr": {"T": {"type": "DT_FLOAT"}, "alpha": {"f": 0.2}}}, {"name": "StatefulPartitionedCall/functional_9_1/conv2d_115_1/add", "op": "_FusedConv2D", "input": ["StatefulPartitionedCall/functional_9_1/leaky_re_lu_36_1/LeakyRelu", "StatefulPartitionedCall/functional_9_1/conv2d_115_1/convolution/ReadVariableOp", "StatefulPartitionedCall/functional_9_1/conv2d_115_1/Reshape"], "device": "/device:CPU:0", "attr": {"dilations": {"list": {"i": ["1", "1", "1", "1"]}}, "num_host_args": {"i": "0"}, "explicit_paddings": {"list": {}}, "padding": {"s": "U0FNRQ=="}, "filter_format": {"s": "SFdJTw=="}, "fused_ops": {"list": {"s": ["Qmlhc0FkZA=="]}}, "use_cudnn_on_gpu": {"b": true}, "leakyrelu_alpha": {"f": 0.2}, "strides": {"list": {"i": ["1", "1", "1", "1"]}}, "num_args": {"i": "1"}, "data_format": {"s": "TkhXQw=="}, "TArgs": {"list": {"type": ["DT_FLOAT"]}}, "T": {"type": "DT_FLOAT"}, "epsilon": {"f": 0.0}}}, {"name": "StatefulPartitionedCall/functional_9_1/batch_normalization_73_1/batchnorm/mul_1", "op": "Mul", "input": ["StatefulPartitionedCall/functional_9_1/conv2d_115_1/add", "StatefulPartitionedCall/functional_9_1/batch_normalization_73_1/batchnorm/mul"], "attr": {"T": {"type": "DT_FLOAT"}}}, {"name": "StatefulPartitionedCall/functional_9_1/batch_normalization_73_1/batchnorm/add_1", "op": "AddV2", "input": ["StatefulPartitionedCall/functional_9_1/batch_normalization_73_1/batchnorm/mul_1", "StatefulPartitionedCall/functional_9_1/batch_normalization_73_1/batchnorm/sub"], "attr": {"T": {"type": "DT_FLOAT"}}}, {"name": "StatefulPartitionedCall/functional_9_1/leaky_re_lu_37_1/LeakyRelu", "op": "LeakyRelu", "input": ["StatefulPartitionedCall/functional_9_1/batch_normalization_73_1/batchnorm/add_1"], "attr": {"alpha": {"f": 0.2}, "T": {"type": "DT_FLOAT"}}}, {"name": "StatefulPartitionedCall/functional_9_1/re_lu_54_1/Relu", "op": "_FusedConv2D", "input": ["StatefulPartitionedCall/functional_9_1/leaky_re_lu_37_1/LeakyRelu", "StatefulPartitionedCall/functional_9_1/conv2d_122_1/convolution/ReadVariableOp", "StatefulPartitionedCall/functional_9_1/conv2d_122_1/Reshape"], "device": "/device:CPU:0", "attr": {"explicit_paddings": {"list": {}}, "data_format": {"s": "TkhXQw=="}, "padding": {"s": "VkFMSUQ="}, "T": {"type": "DT_FLOAT"}, "fused_ops": {"list": {"s": ["Qmlhc0FkZA==", "UmVsdQ=="]}}, "use_cudnn_on_gpu": {"b": true}, "TArgs": {"list": {"type": ["DT_FLOAT"]}}, "num_args": {"i": "1"}, "dilations": {"list": {"i": ["1", "1", "1", "1"]}}, "epsilon": {"f": 0.0}, "strides": {"list": {"i": ["1", "1", "1", "1"]}}, "filter_format": {"s": "SFdJTw=="}, "leakyrelu_alpha": {"f": 0.2}, "num_host_args": {"i": "0"}}}, {"name": "StatefulPartitionedCall/functional_9_1/conv2d_116_1/add", "op": "_FusedConv2D", "input": ["StatefulPartitionedCall/functional_9_1/leaky_re_lu_37_1/LeakyRelu", "StatefulPartitionedCall/functional_9_1/conv2d_116_1/convolution/ReadVariableOp", "StatefulPartitionedCall/functional_9_1/conv2d_116_1/Reshape"], "device": "/device:CPU:0", "attr": {"padding": {"s": "VkFMSUQ="}, "TArgs": {"list": {"type": ["DT_FLOAT"]}}, "num_host_args": {"i": "0"}, "data_format": {"s": "TkhXQw=="}, "filter_format": {"s": "SFdJTw=="}, "use_cudnn_on_gpu": {"b": true}, "fused_ops": {"list": {"s": ["Qmlhc0FkZA=="]}}, "dilations": {"list": {"i": ["1", "1", "1", "1"]}}, "strides": {"list": {"i": ["1", "2", "2", "1"]}}, "epsilon": {"f": 0.0}, "num_args": {"i": "1"}, "leakyrelu_alpha": {"f": 0.2}, "explicit_paddings": {"list": {}}, "T": {"type": "DT_FLOAT"}}}, {"name": "StatefulPartitionedCall/functional_9_1/conv2d_117_1/add", "op": "_FusedConv2D", "input": ["StatefulPartitionedCall/functional_9_1/leaky_re_lu_37_1/LeakyRelu", "StatefulPartitionedCall/functional_9_1/conv2d_117_1/convolution/ReadVariableOp", "StatefulPartitionedCall/functional_9_1/conv2d_117_1/Reshape"], "device": "/device:CPU:0", "attr": {"epsilon": {"f": 0.0}, "padding": {"s": "U0FNRQ=="}, "fused_ops": {"list": {"s": ["Qmlhc0FkZA=="]}}, "num_args": {"i": "1"}, "num_host_args": {"i": "0"}, "TArgs": {"list": {"type": ["DT_FLOAT"]}}, "filter_format": {"s": "SFdJTw=="}, "T": {"type": "DT_FLOAT"}, "use_cudnn_on_gpu": {"b": true}, "strides": {"list": {"i": ["1", "1", "1", "1"]}}, "data_format": {"s": "TkhXQw=="}, "explicit_paddings": {"list": {}}, "dilations": {"list": {"i": ["1", "1", "1", "1"]}}, "leakyrelu_alpha": {"f": 0.2}}}, {"name": "StatefulPartitionedCall/functional_9_1/conv2d_transpose_36_1/Shape", "op": "Shape", "input": ["StatefulPartitionedCall/functional_9_1/re_lu_54_1/Relu"], "attr": {"T": {"type": "DT_FLOAT"}, "out_type": {"type": "DT_INT32"}}, "experimentalType": {"typeId": "TFT_PRODUCT", "args": [{"typeId": "TFT_SHAPE_TENSOR", "args": [{"typeId": "TFT_INT32"}]}]}}, {"name": "StatefulPartitionedCall/functional_9_1/batch_normalization_74_1/batchnorm/mul_1", "op": "Mul", "input": ["StatefulPartitionedCall/functional_9_1/conv2d_116_1/add", "StatefulPartitionedCall/functional_9_1/batch_normalization_74_1/batchnorm/mul"], "attr": {"T": {"type": "DT_FLOAT"}}}, {"name": "StatefulPartitionedCall/functional_9_1/batch_normalization_75_1/batchnorm/mul_1", "op": "Mul", "input": ["StatefulPartitionedCall/functional_9_1/conv2d_117_1/add", "StatefulPartitionedCall/functional_9_1/batch_normalization_75_1/batchnorm/mul"], "attr": {"T": {"type": "DT_FLOAT"}}}, {"name": "StatefulPartitionedCall/functional_9_1/conv2d_transpose_36_1/strided_slice", "op": "StridedSlice", "input": ["StatefulPartitionedCall/functional_9_1/conv2d_transpose_36_1/Shape", "StatefulPartitionedCall/functional_9_1/conv2d_transpose_36_1/strided_slice/stack", "StatefulPartitionedCall/functional_9_1/conv2d_transpose_36_1/strided_slice/stack_1", "StatefulPartitionedCall/functional_9_1/conv2d_transpose_36_1/strided_slice/stack_2"], "attr": {"Index": {"type": "DT_INT32"}, "shrink_axis_mask": {"i": "1"}, "new_axis_mask": {"i": "0"}, "end_mask": {"i": "0"}, "T": {"type": "DT_INT32"}, "begin_mask": {"i": "0"}, "ellipsis_mask": {"i": "0"}}}, {"name": "StatefulPartitionedCall/functional_9_1/conv2d_transpose_36_1/strided_slice_1", "op": "StridedSlice", "input": ["StatefulPartitionedCall/functional_9_1/conv2d_transpose_36_1/Shape", "StatefulPartitionedCall/functional_9_1/conv2d_transpose_36_1/strided_slice_1/stack", "StatefulPartitionedCall/functional_9_1/conv2d_transpose_36_1/strided_slice_1/stack_1", "StatefulPartitionedCall/functional_9_1/conv2d_transpose_36_1/strided_slice_1/stack_2"], "attr": {"new_axis_mask": {"i": "0"}, "T": {"type": "DT_INT32"}, "end_mask": {"i": "0"}, "shrink_axis_mask": {"i": "1"}, "begin_mask": {"i": "0"}, "ellipsis_mask": {"i": "0"}, "Index": {"type": "DT_INT32"}}}, {"name": "StatefulPartitionedCall/functional_9_1/conv2d_transpose_36_1/strided_slice_2", "op": "StridedSlice", "input": ["StatefulPartitionedCall/functional_9_1/conv2d_transpose_36_1/Shape", "StatefulPartitionedCall/functional_9_1/conv2d_transpose_36_1/strided_slice_2/stack", "StatefulPartitionedCall/functional_9_1/conv2d_transpose_36_1/strided_slice_2/stack_1", "StatefulPartitionedCall/functional_9_1/conv2d_transpose_36_1/strided_slice_2/stack_2"], "attr": {"T": {"type": "DT_INT32"}, "new_axis_mask": {"i": "0"}, "Index": {"type": "DT_INT32"}, "ellipsis_mask": {"i": "0"}, "shrink_axis_mask": {"i": "1"}, "begin_mask": {"i": "0"}, "end_mask": {"i": "0"}}}, {"name": "StatefulPartitionedCall/functional_9_1/batch_normalization_74_1/batchnorm/add_1", "op": "AddV2", "input": ["StatefulPartitionedCall/functional_9_1/batch_normalization_74_1/batchnorm/mul_1", "StatefulPartitionedCall/functional_9_1/batch_normalization_74_1/batchnorm/sub"], "attr": {"T": {"type": "DT_FLOAT"}}}, {"name": "StatefulPartitionedCall/functional_9_1/batch_normalization_75_1/batchnorm/add_1", "op": "AddV2", "input": ["StatefulPartitionedCall/functional_9_1/batch_normalization_75_1/batchnorm/mul_1", "StatefulPartitionedCall/functional_9_1/batch_normalization_75_1/batchnorm/sub"], "attr": {"T": {"type": "DT_FLOAT"}}}, {"name": "StatefulPartitionedCall/functional_9_1/conv2d_transpose_36_1/mul", "op": "Mul", "input": ["StatefulPartitionedCall/functional_9_1/conv2d_transpose_36_1/strided_slice_1", "StatefulPartitionedCall/functional_9_1/conv2d_transpose_36_1/mul/y"], "attr": {"T": {"type": "DT_INT32"}}}, {"name": "StatefulPartitionedCall/functional_9_1/conv2d_transpose_36_1/mul_1", "op": "Mul", "input": ["StatefulPartitionedCall/functional_9_1/conv2d_transpose_36_1/strided_slice_2", "StatefulPartitionedCall/functional_9_1/conv2d_transpose_36_1/mul_1/y"], "attr": {"T": {"type": "DT_INT32"}}}, {"name": "StatefulPartitionedCall/functional_9_1/leaky_re_lu_38_1/LeakyRelu", "op": "LeakyRelu", "input": ["StatefulPartitionedCall/functional_9_1/batch_normalization_75_1/batchnorm/add_1"], "attr": {"alpha": {"f": 0.2}, "T": {"type": "DT_FLOAT"}}}, {"name": "StatefulPartitionedCall/functional_9_1/conv2d_transpose_36_1/conv_transpose/input_sizes", "op": "Pack", "input": ["StatefulPartitionedCall/functional_9_1/conv2d_transpose_36_1/strided_slice", "StatefulPartitionedCall/functional_9_1/conv2d_transpose_36_1/mul", "StatefulPartitionedCall/functional_9_1/conv2d_transpose_36_1/mul_1", "StatefulPartitionedCall/functional_9_1/conv2d_transpose_36_1/conv_transpose/input_sizes/3"], "attr": {"T": {"type": "DT_INT32"}, "N": {"i": "4"}, "axis": {"i": "0"}}}, {"name": "StatefulPartitionedCall/functional_9_1/conv2d_118_1/add", "op": "_FusedConv2D", "input": ["StatefulPartitionedCall/functional_9_1/leaky_re_lu_38_1/LeakyRelu", "StatefulPartitionedCall/functional_9_1/conv2d_118_1/convolution/ReadVariableOp", "StatefulPartitionedCall/functional_9_1/conv2d_118_1/Reshape"], "device": "/device:CPU:0", "attr": {"num_args": {"i": "1"}, "strides": {"list": {"i": ["1", "1", "1", "1"]}}, "data_format": {"s": "TkhXQw=="}, "explicit_paddings": {"list": {}}, "padding": {"s": "U0FNRQ=="}, "epsilon": {"f": 0.0}, "leakyrelu_alpha": {"f": 0.2}, "filter_format": {"s": "SFdJTw=="}, "dilations": {"list": {"i": ["1", "1", "1", "1"]}}, "fused_ops": {"list": {"s": ["Qmlhc0FkZA=="]}}, "T": {"type": "DT_FLOAT"}, "use_cudnn_on_gpu": {"b": true}, "num_host_args": {"i": "0"}, "TArgs": {"list": {"type": ["DT_FLOAT"]}}}}, {"name": "StatefulPartitionedCall/functional_9_1/conv2d_transpose_36_1/conv_transpose", "op": "Conv2DBackpropInput", "input": ["StatefulPartitionedCall/functional_9_1/conv2d_transpose_36_1/conv_transpose/input_sizes", "StatefulPartitionedCall/functional_9_1/conv2d_transpose_36_1/conv_transpose/ReadVariableOp", "StatefulPartitionedCall/functional_9_1/re_lu_54_1/Relu"], "attr": {"strides": {"list": {"i": ["1", "2", "2", "1"]}}, "data_format": {"s": "TkhXQw=="}, "dilations": {"list": {"i": ["1", "1", "1", "1"]}}, "use_cudnn_on_gpu": {"b": true}, "padding": {"s": "U0FNRQ=="}, "explicit_paddings": {"list": {}}, "T": {"type": "DT_FLOAT"}}}, {"name": "StatefulPartitionedCall/functional_9_1/batch_normalization_76_1/batchnorm/mul_1", "op": "Mul", "input": ["StatefulPartitionedCall/functional_9_1/conv2d_118_1/add", "StatefulPartitionedCall/functional_9_1/batch_normalization_76_1/batchnorm/mul"], "attr": {"T": {"type": "DT_FLOAT"}}}, {"name": "StatefulPartitionedCall/functional_9_1/conv2d_transpose_36_1/add", "op": "AddV2", "input": ["StatefulPartitionedCall/functional_9_1/conv2d_transpose_36_1/conv_transpose", "StatefulPartitionedCall/functional_9_1/conv2d_transpose_36_1/Reshape"], "attr": {"T": {"type": "DT_FLOAT"}}}, {"name": "StatefulPartitionedCall/functional_9_1/batch_normalization_76_1/batchnorm/add_1", "op": "AddV2", "input": ["StatefulPartitionedCall/functional_9_1/batch_normalization_76_1/batchnorm/mul_1", "StatefulPartitionedCall/functional_9_1/batch_normalization_76_1/batchnorm/sub"], "attr": {"T": {"type": "DT_FLOAT"}}}, {"name": "Identity", "op": "Identity", "input": ["StatefulPartitionedCall/functional_9_1/conv2d_transpose_36_1/add"], "attr": {"T": {"type": "DT_FLOAT"}}}, {"name": "StatefulPartitionedCall/functional_9_1/re_lu_55_1/Relu", "op": "_FusedConv2D", "input": ["StatefulPartitionedCall/functional_9_1/batch_normalization_76_1/batchnorm/add_1", "StatefulPartitionedCall/functional_9_1/conv2d_123_1/convolution/ReadVariableOp", "StatefulPartitionedCall/functional_9_1/conv2d_123_1/Reshape"], "device": "/device:CPU:0", "attr": {"T": {"type": "DT_FLOAT"}, "explicit_paddings": {"list": {}}, "data_format": {"s": "TkhXQw=="}, "num_args": {"i": "1"}, "dilations": {"list": {"i": ["1", "1", "1", "1"]}}, "TArgs": {"list": {"type": ["DT_FLOAT"]}}, "num_host_args": {"i": "0"}, "fused_ops": {"list": {"s": ["Qmlhc0FkZA==", "UmVsdQ=="]}}, "strides": {"list": {"i": ["1", "1", "1", "1"]}}, "padding": {"s": "VkFMSUQ="}, "use_cudnn_on_gpu": {"b": true}, "leakyrelu_alpha": {"f": 0.2}, "filter_format": {"s": "SFdJTw=="}, "epsilon": {"f": 0.0}}}, {"name": "StatefulPartitionedCall/functional_9_1/average_pooling2d_9_1/AvgPool", "op": "AvgPool", "input": ["StatefulPartitionedCall/functional_9_1/batch_normalization_76_1/batchnorm/add_1"], "attr": {"strides": {"list": {"i": ["1", "2", "2", "1"]}}, "padding": {"s": "U0FNRQ=="}, "ksize": {"list": {"i": ["1", "3", "3", "1"]}}, "T": {"type": "DT_FLOAT"}, "data_format": {"s": "TkhXQw=="}}}, {"name": "StatefulPartitionedCall/functional_9_1/conv2d_transpose_37_1/Shape", "op": "Shape", "input": ["StatefulPartitionedCall/functional_9_1/re_lu_55_1/Relu"], "attr": {"T": {"type": "DT_FLOAT"}, "out_type": {"type": "DT_INT32"}}, "experimentalType": {"typeId": "TFT_PRODUCT", "args": [{"typeId": "TFT_SHAPE_TENSOR", "args": [{"typeId": "TFT_INT32"}]}]}}, {"name": "StatefulPartitionedCall/functional_9_1/add_18_1/Add", "op": "AddV2", "input": ["StatefulPartitionedCall/functional_9_1/average_pooling2d_9_1/AvgPool", "StatefulPartitionedCall/functional_9_1/batch_normalization_74_1/batchnorm/add_1"], "attr": {"T": {"type": "DT_FLOAT"}}}, {"name": "StatefulPartitionedCall/functional_9_1/conv2d_119_1/add", "op": "_FusedConv2D", "input": ["StatefulPartitionedCall/functional_9_1/average_pooling2d_9_1/AvgPool", "StatefulPartitionedCall/functional_9_1/conv2d_119_1/convolution/ReadVariableOp", "StatefulPartitionedCall/functional_9_1/conv2d_119_1/Reshape"], "device": "/device:CPU:0", "attr": {"num_host_args": {"i": "0"}, "strides": {"list": {"i": ["1", "1", "1", "1"]}}, "filter_format": {"s": "SFdJTw=="}, "T": {"type": "DT_FLOAT"}, "dilations": {"list": {"i": ["1", "1", "1", "1"]}}, "num_args": {"i": "1"}, "leakyrelu_alpha": {"f": 0.2}, "data_format": {"s": "TkhXQw=="}, "explicit_paddings": {"list": {}}, "epsilon": {"f": 0.0}, "padding": {"s": "VkFMSUQ="}, "fused_ops": {"list": {"s": ["Qmlhc0FkZA=="]}}, "TArgs": {"list": {"type": ["DT_FLOAT"]}}, "use_cudnn_on_gpu": {"b": true}}}, {"name": "StatefulPartitionedCall/functional_9_1/conv2d_transpose_37_1/strided_slice", "op": "StridedSlice", "input": ["StatefulPartitionedCall/functional_9_1/conv2d_transpose_37_1/Shape", "StatefulPartitionedCall/functional_9_1/conv2d_transpose_37_1/strided_slice/stack", "StatefulPartitionedCall/functional_9_1/conv2d_transpose_37_1/strided_slice/stack_1", "StatefulPartitionedCall/functional_9_1/conv2d_transpose_37_1/strided_slice/stack_2"], "attr": {"ellipsis_mask": {"i": "0"}, "begin_mask": {"i": "0"}, "T": {"type": "DT_INT32"}, "new_axis_mask": {"i": "0"}, "shrink_axis_mask": {"i": "1"}, "end_mask": {"i": "0"}, "Index": {"type": "DT_INT32"}}}, {"name": "StatefulPartitionedCall/functional_9_1/conv2d_transpose_37_1/strided_slice_1", "op": "StridedSlice", "input": ["StatefulPartitionedCall/functional_9_1/conv2d_transpose_37_1/Shape", "StatefulPartitionedCall/functional_9_1/conv2d_transpose_37_1/strided_slice_1/stack", "StatefulPartitionedCall/functional_9_1/conv2d_transpose_37_1/strided_slice_1/stack_1", "StatefulPartitionedCall/functional_9_1/conv2d_transpose_37_1/strided_slice_1/stack_2"], "attr": {"end_mask": {"i": "0"}, "Index": {"type": "DT_INT32"}, "T": {"type": "DT_INT32"}, "new_axis_mask": {"i": "0"}, "ellipsis_mask": {"i": "0"}, "begin_mask": {"i": "0"}, "shrink_axis_mask": {"i": "1"}}}, {"name": "StatefulPartitionedCall/functional_9_1/conv2d_transpose_37_1/strided_slice_2", "op": "StridedSlice", "input": ["StatefulPartitionedCall/functional_9_1/conv2d_transpose_37_1/Shape", "StatefulPartitionedCall/functional_9_1/conv2d_transpose_37_1/strided_slice_2/stack", "StatefulPartitionedCall/functional_9_1/conv2d_transpose_37_1/strided_slice_2/stack_1", "StatefulPartitionedCall/functional_9_1/conv2d_transpose_37_1/strided_slice_2/stack_2"], "attr": {"shrink_axis_mask": {"i": "1"}, "Index": {"type": "DT_INT32"}, "begin_mask": {"i": "0"}, "T": {"type": "DT_INT32"}, "ellipsis_mask": {"i": "0"}, "new_axis_mask": {"i": "0"}, "end_mask": {"i": "0"}}}, {"name": "StatefulPartitionedCall/functional_9_1/conv2d_120_1/add", "op": "_FusedConv2D", "input": ["StatefulPartitionedCall/functional_9_1/add_18_1/Add", "StatefulPartitionedCall/functional_9_1/conv2d_120_1/convolution/ReadVariableOp", "StatefulPartitionedCall/functional_9_1/conv2d_120_1/Reshape"], "device": "/device:CPU:0", "attr": {"padding": {"s": "U0FNRQ=="}, "epsilon": {"f": 0.0}, "explicit_paddings": {"list": {}}, "num_host_args": {"i": "0"}, "strides": {"list": {"i": ["1", "1", "1", "1"]}}, "use_cudnn_on_gpu": {"b": true}, "T": {"type": "DT_FLOAT"}, "TArgs": {"list": {"type": ["DT_FLOAT"]}}, "num_args": {"i": "1"}, "filter_format": {"s": "SFdJTw=="}, "fused_ops": {"list": {"s": ["Qmlhc0FkZA=="]}}, "data_format": {"s": "TkhXQw=="}, "dilations": {"list": {"i": ["1", "1", "1", "1"]}}, "leakyrelu_alpha": {"f": 0.2}}}, {"name": "StatefulPartitionedCall/functional_9_1/batch_normalization_77_1/batchnorm/mul_1", "op": "Mul", "input": ["StatefulPartitionedCall/functional_9_1/conv2d_119_1/add", "StatefulPartitionedCall/functional_9_1/batch_normalization_77_1/batchnorm/mul"], "attr": {"T": {"type": "DT_FLOAT"}}}, {"name": "StatefulPartitionedCall/functional_9_1/conv2d_transpose_37_1/mul", "op": "Mul", "input": ["StatefulPartitionedCall/functional_9_1/conv2d_transpose_37_1/strided_slice_1", "StatefulPartitionedCall/functional_9_1/conv2d_transpose_37_1/mul/y"], "attr": {"T": {"type": "DT_INT32"}}}, {"name": "StatefulPartitionedCall/functional_9_1/conv2d_transpose_37_1/mul_1", "op": "Mul", "input": ["StatefulPartitionedCall/functional_9_1/conv2d_transpose_37_1/strided_slice_2", "StatefulPartitionedCall/functional_9_1/conv2d_transpose_37_1/mul_1/y"], "attr": {"T": {"type": "DT_INT32"}}}, {"name": "StatefulPartitionedCall/functional_9_1/batch_normalization_78_1/batchnorm/mul_1", "op": "Mul", "input": ["StatefulPartitionedCall/functional_9_1/conv2d_120_1/add", "StatefulPartitionedCall/functional_9_1/batch_normalization_78_1/batchnorm/mul"], "attr": {"T": {"type": "DT_FLOAT"}}}, {"name": "StatefulPartitionedCall/functional_9_1/batch_normalization_77_1/batchnorm/add_1", "op": "AddV2", "input": ["StatefulPartitionedCall/functional_9_1/batch_normalization_77_1/batchnorm/mul_1", "StatefulPartitionedCall/functional_9_1/batch_normalization_77_1/batchnorm/sub"], "attr": {"T": {"type": "DT_FLOAT"}}}, {"name": "StatefulPartitionedCall/functional_9_1/conv2d_transpose_37_1/conv_transpose/input_sizes", "op": "Pack", "input": ["StatefulPartitionedCall/functional_9_1/conv2d_transpose_37_1/strided_slice", "StatefulPartitionedCall/functional_9_1/conv2d_transpose_37_1/mul", "StatefulPartitionedCall/functional_9_1/conv2d_transpose_37_1/mul_1", "StatefulPartitionedCall/functional_9_1/conv2d_transpose_37_1/conv_transpose/input_sizes/3"], "attr": {"axis": {"i": "0"}, "N": {"i": "4"}, "T": {"type": "DT_INT32"}}}, {"name": "StatefulPartitionedCall/functional_9_1/batch_normalization_78_1/batchnorm/add_1", "op": "AddV2", "input": ["StatefulPartitionedCall/functional_9_1/batch_normalization_78_1/batchnorm/mul_1", "StatefulPartitionedCall/functional_9_1/batch_normalization_78_1/batchnorm/sub"], "attr": {"T": {"type": "DT_FLOAT"}}}, {"name": "StatefulPartitionedCall/functional_9_1/conv2d_transpose_37_1/conv_transpose", "op": "Conv2DBackpropInput", "input": ["StatefulPartitionedCall/functional_9_1/conv2d_transpose_37_1/conv_transpose/input_sizes", "StatefulPartitionedCall/functional_9_1/conv2d_transpose_37_1/conv_transpose/ReadVariableOp", "StatefulPartitionedCall/functional_9_1/re_lu_55_1/Relu"], "attr": {"explicit_paddings": {"list": {}}, "strides": {"list": {"i": ["1", "2", "2", "1"]}}, "data_format": {"s": "TkhXQw=="}, "padding": {"s": "U0FNRQ=="}, "dilations": {"list": {"i": ["1", "1", "1", "1"]}}, "use_cudnn_on_gpu": {"b": true}, "T": {"type": "DT_FLOAT"}}}, {"name": "StatefulPartitionedCall/functional_9_1/leaky_re_lu_39_1/LeakyRelu", "op": "LeakyRelu", "input": ["StatefulPartitionedCall/functional_9_1/batch_normalization_78_1/batchnorm/add_1"], "attr": {"alpha": {"f": 0.2}, "T": {"type": "DT_FLOAT"}}}, {"name": "StatefulPartitionedCall/functional_9_1/conv2d_transpose_37_1/add", "op": "AddV2", "input": ["StatefulPartitionedCall/functional_9_1/conv2d_transpose_37_1/conv_transpose", "StatefulPartitionedCall/functional_9_1/conv2d_transpose_37_1/Reshape"], "attr": {"T": {"type": "DT_FLOAT"}}}, {"name": "StatefulPartitionedCall/functional_9_1/conv2d_121_1/add", "op": "_FusedConv2D", "input": ["StatefulPartitionedCall/functional_9_1/leaky_re_lu_39_1/LeakyRelu", "StatefulPartitionedCall/functional_9_1/conv2d_121_1/convolution/ReadVariableOp", "StatefulPartitionedCall/functional_9_1/conv2d_121_1/Reshape"], "device": "/device:CPU:0", "attr": {"dilations": {"list": {"i": ["1", "1", "1", "1"]}}, "strides": {"list": {"i": ["1", "1", "1", "1"]}}, "num_args": {"i": "1"}, "leakyrelu_alpha": {"f": 0.2}, "use_cudnn_on_gpu": {"b": true}, "padding": {"s": "U0FNRQ=="}, "num_host_args": {"i": "0"}, "explicit_paddings": {"list": {}}, "epsilon": {"f": 0.0}, "T": {"type": "DT_FLOAT"}, "data_format": {"s": "TkhXQw=="}, "fused_ops": {"list": {"s": ["Qmlhc0FkZA=="]}}, "TArgs": {"list": {"type": ["DT_FLOAT"]}}, "filter_format": {"s": "SFdJTw=="}}}, {"name": "Identity_1", "op": "Identity", "input": ["StatefulPartitionedCall/functional_9_1/conv2d_transpose_37_1/add"], "attr": {"T": {"type": "DT_FLOAT"}}}, {"name": "StatefulPartitionedCall/functional_9_1/batch_normalization_79_1/batchnorm/mul_1", "op": "Mul", "input": ["StatefulPartitionedCall/functional_9_1/conv2d_121_1/add", "StatefulPartitionedCall/functional_9_1/batch_normalization_79_1/batchnorm/mul"], "attr": {"T": {"type": "DT_FLOAT"}}}, {"name": "StatefulPartitionedCall/functional_9_1/batch_normalization_79_1/batchnorm/add_1", "op": "AddV2", "input": ["StatefulPartitionedCall/functional_9_1/batch_normalization_79_1/batchnorm/mul_1", "StatefulPartitionedCall/functional_9_1/batch_normalization_79_1/batchnorm/sub"], "attr": {"T": {"type": "DT_FLOAT"}}}, {"name": "StatefulPartitionedCall/functional_9_1/add_19_1/Add", "op": "AddV2", "input": ["StatefulPartitionedCall/functional_9_1/batch_normalization_79_1/batchnorm/add_1", "StatefulPartitionedCall/functional_9_1/batch_normalization_77_1/batchnorm/add_1"], "attr": {"T": {"type": "DT_FLOAT"}}}, {"name": "StatefulPartitionedCall/functional_9_1/re_lu_56_1/Relu", "op": "_FusedConv2D", "input": ["StatefulPartitionedCall/functional_9_1/add_19_1/Add", "StatefulPartitionedCall/functional_9_1/conv2d_124_1/convolution/ReadVariableOp", "StatefulPartitionedCall/functional_9_1/conv2d_124_1/Reshape"], "device": "/device:CPU:0", "attr": {"fused_ops": {"list": {"s": ["Qmlhc0FkZA==", "UmVsdQ=="]}}, "dilations": {"list": {"i": ["1", "1", "1", "1"]}}, "use_cudnn_on_gpu": {"b": true}, "leakyrelu_alpha": {"f": 0.2}, "num_host_args": {"i": "0"}, "filter_format": {"s": "SFdJTw=="}, "T": {"type": "DT_FLOAT"}, "strides": {"list": {"i": ["1", "1", "1", "1"]}}, "epsilon": {"f": 0.0}, "TArgs": {"list": {"type": ["DT_FLOAT"]}}, "explicit_paddings": {"list": {}}, "num_args": {"i": "1"}, "data_format": {"s": "TkhXQw=="}, "padding": {"s": "VkFMSUQ="}}}, {"name": "StatefulPartitionedCall/functional_9_1/conv2d_transpose_38_1/Shape", "op": "Shape", "input": ["StatefulPartitionedCall/functional_9_1/re_lu_56_1/Relu"], "attr": {"T": {"type": "DT_FLOAT"}, "out_type": {"type": "DT_INT32"}}, "experimentalType": {"typeId": "TFT_PRODUCT", "args": [{"typeId": "TFT_SHAPE_TENSOR", "args": [{"typeId": "TFT_INT32"}]}]}}, {"name": "StatefulPartitionedCall/functional_9_1/conv2d_transpose_38_1/strided_slice", "op": "StridedSlice", "input": ["StatefulPartitionedCall/functional_9_1/conv2d_transpose_38_1/Shape", "StatefulPartitionedCall/functional_9_1/conv2d_transpose_38_1/strided_slice/stack", "StatefulPartitionedCall/functional_9_1/conv2d_transpose_38_1/strided_slice/stack_1", "StatefulPartitionedCall/functional_9_1/conv2d_transpose_38_1/strided_slice/stack_2"], "attr": {"begin_mask": {"i": "0"}, "ellipsis_mask": {"i": "0"}, "shrink_axis_mask": {"i": "1"}, "T": {"type": "DT_INT32"}, "new_axis_mask": {"i": "0"}, "Index": {"type": "DT_INT32"}, "end_mask": {"i": "0"}}}, {"name": "StatefulPartitionedCall/functional_9_1/conv2d_transpose_38_1/strided_slice_1", "op": "StridedSlice", "input": ["StatefulPartitionedCall/functional_9_1/conv2d_transpose_38_1/Shape", "StatefulPartitionedCall/functional_9_1/conv2d_transpose_38_1/strided_slice_1/stack", "StatefulPartitionedCall/functional_9_1/conv2d_transpose_38_1/strided_slice_1/stack_1", "StatefulPartitionedCall/functional_9_1/conv2d_transpose_38_1/strided_slice_1/stack_2"], "attr": {"ellipsis_mask": {"i": "0"}, "new_axis_mask": {"i": "0"}, "shrink_axis_mask": {"i": "1"}, "begin_mask": {"i": "0"}, "T": {"type": "DT_INT32"}, "end_mask": {"i": "0"}, "Index": {"type": "DT_INT32"}}}, {"name": "StatefulPartitionedCall/functional_9_1/conv2d_transpose_38_1/strided_slice_2", "op": "StridedSlice", "input": ["StatefulPartitionedCall/functional_9_1/conv2d_transpose_38_1/Shape", "StatefulPartitionedCall/functional_9_1/conv2d_transpose_38_1/strided_slice_2/stack", "StatefulPartitionedCall/functional_9_1/conv2d_transpose_38_1/strided_slice_2/stack_1", "StatefulPartitionedCall/functional_9_1/conv2d_transpose_38_1/strided_slice_2/stack_2"], "attr": {"T": {"type": "DT_INT32"}, "begin_mask": {"i": "0"}, "Index": {"type": "DT_INT32"}, "end_mask": {"i": "0"}, "ellipsis_mask": {"i": "0"}, "shrink_axis_mask": {"i": "1"}, "new_axis_mask": {"i": "0"}}}, {"name": "StatefulPartitionedCall/functional_9_1/conv2d_transpose_38_1/mul", "op": "Mul", "input": ["StatefulPartitionedCall/functional_9_1/conv2d_transpose_38_1/strided_slice_1", "StatefulPartitionedCall/functional_9_1/conv2d_transpose_38_1/mul/y"], "attr": {"T": {"type": "DT_INT32"}}}, {"name": "StatefulPartitionedCall/functional_9_1/conv2d_transpose_38_1/mul_1", "op": "Mul", "input": ["StatefulPartitionedCall/functional_9_1/conv2d_transpose_38_1/strided_slice_2", "StatefulPartitionedCall/functional_9_1/conv2d_transpose_38_1/mul_1/y"], "attr": {"T": {"type": "DT_INT32"}}}, {"name": "StatefulPartitionedCall/functional_9_1/conv2d_transpose_38_1/conv_transpose/input_sizes", "op": "Pack", "input": ["StatefulPartitionedCall/functional_9_1/conv2d_transpose_38_1/strided_slice", "StatefulPartitionedCall/functional_9_1/conv2d_transpose_38_1/mul", "StatefulPartitionedCall/functional_9_1/conv2d_transpose_38_1/mul_1", "StatefulPartitionedCall/functional_9_1/conv2d_transpose_38_1/conv_transpose/input_sizes/3"], "attr": {"T": {"type": "DT_INT32"}, "N": {"i": "4"}, "axis": {"i": "0"}}}, {"name": "StatefulPartitionedCall/functional_9_1/conv2d_transpose_38_1/conv_transpose", "op": "Conv2DBackpropInput", "input": ["StatefulPartitionedCall/functional_9_1/conv2d_transpose_38_1/conv_transpose/input_sizes", "StatefulPartitionedCall/functional_9_1/conv2d_transpose_38_1/conv_transpose/ReadVariableOp", "StatefulPartitionedCall/functional_9_1/re_lu_56_1/Relu"], "attr": {"data_format": {"s": "TkhXQw=="}, "use_cudnn_on_gpu": {"b": true}, "padding": {"s": "U0FNRQ=="}, "strides": {"list": {"i": ["1", "2", "2", "1"]}}, "explicit_paddings": {"list": {}}, "T": {"type": "DT_FLOAT"}, "dilations": {"list": {"i": ["1", "1", "1", "1"]}}}}, {"name": "StatefulPartitionedCall/functional_9_1/conv2d_transpose_38_1/add", "op": "AddV2", "input": ["StatefulPartitionedCall/functional_9_1/conv2d_transpose_38_1/conv_transpose", "StatefulPartitionedCall/functional_9_1/conv2d_transpose_38_1/Reshape"], "attr": {"T": {"type": "DT_FLOAT"}}}, {"name": "StatefulPartitionedCall/functional_9_1/re_lu_57_1/Relu", "op": "_FusedConv2D", "input": ["StatefulPartitionedCall/functional_9_1/conv2d_transpose_38_1/add", "StatefulPartitionedCall/functional_9_1/conv2d_125_1/convolution/ReadVariableOp", "StatefulPartitionedCall/functional_9_1/conv2d_125_1/Reshape"], "device": "/device:CPU:0", "attr": {"padding": {"s": "VkFMSUQ="}, "explicit_paddings": {"list": {}}, "T": {"type": "DT_FLOAT"}, "num_host_args": {"i": "0"}, "epsilon": {"f": 0.0}, "strides": {"list": {"i": ["1", "1", "1", "1"]}}, "filter_format": {"s": "SFdJTw=="}, "fused_ops": {"list": {"s": ["Qmlhc0FkZA==", "UmVsdQ=="]}}, "data_format": {"s": "TkhXQw=="}, "leakyrelu_alpha": {"f": 0.2}, "dilations": {"list": {"i": ["1", "1", "1", "1"]}}, "use_cudnn_on_gpu": {"b": true}, "num_args": {"i": "1"}, "TArgs": {"list": {"type": ["DT_FLOAT"]}}}}, {"name": "StatefulPartitionedCall/functional_9_1/conv2d_transpose_39_1/Shape", "op": "Shape", "input": ["StatefulPartitionedCall/functional_9_1/re_lu_57_1/Relu"], "attr": {"T": {"type": "DT_FLOAT"}, "out_type": {"type": "DT_INT32"}}, "experimentalType": {"typeId": "TFT_PRODUCT", "args": [{"typeId": "TFT_SHAPE_TENSOR", "args": [{"typeId": "TFT_INT32"}]}]}}, {"name": "StatefulPartitionedCall/functional_9_1/conv2d_transpose_39_1/strided_slice_2", "op": "StridedSlice", "input": ["StatefulPartitionedCall/functional_9_1/conv2d_transpose_39_1/Shape", "StatefulPartitionedCall/functional_9_1/conv2d_transpose_39_1/strided_slice_2/stack", "StatefulPartitionedCall/functional_9_1/conv2d_transpose_39_1/strided_slice_2/stack_1", "StatefulPartitionedCall/functional_9_1/conv2d_transpose_39_1/strided_slice_2/stack_2"], "attr": {"shrink_axis_mask": {"i": "1"}, "begin_mask": {"i": "0"}, "Index": {"type": "DT_INT32"}, "T": {"type": "DT_INT32"}, "ellipsis_mask": {"i": "0"}, "end_mask": {"i": "0"}, "new_axis_mask": {"i": "0"}}}, {"name": "StatefulPartitionedCall/functional_9_1/conv2d_transpose_39_1/strided_slice", "op": "StridedSlice", "input": ["StatefulPartitionedCall/functional_9_1/conv2d_transpose_39_1/Shape", "StatefulPartitionedCall/functional_9_1/conv2d_transpose_39_1/strided_slice/stack", "StatefulPartitionedCall/functional_9_1/conv2d_transpose_39_1/strided_slice/stack_1", "StatefulPartitionedCall/functional_9_1/conv2d_transpose_39_1/strided_slice/stack_2"], "attr": {"end_mask": {"i": "0"}, "begin_mask": {"i": "0"}, "T": {"type": "DT_INT32"}, "new_axis_mask": {"i": "0"}, "ellipsis_mask": {"i": "0"}, "Index": {"type": "DT_INT32"}, "shrink_axis_mask": {"i": "1"}}}, {"name": "StatefulPartitionedCall/functional_9_1/conv2d_transpose_39_1/strided_slice_1", "op": "StridedSlice", "input": ["StatefulPartitionedCall/functional_9_1/conv2d_transpose_39_1/Shape", "StatefulPartitionedCall/functional_9_1/conv2d_transpose_39_1/strided_slice_1/stack", "StatefulPartitionedCall/functional_9_1/conv2d_transpose_39_1/strided_slice_1/stack_1", "StatefulPartitionedCall/functional_9_1/conv2d_transpose_39_1/strided_slice_1/stack_2"], "attr": {"new_axis_mask": {"i": "0"}, "Index": {"type": "DT_INT32"}, "ellipsis_mask": {"i": "0"}, "T": {"type": "DT_INT32"}, "shrink_axis_mask": {"i": "1"}, "end_mask": {"i": "0"}, "begin_mask": {"i": "0"}}}, {"name": "StatefulPartitionedCall/functional_9_1/conv2d_transpose_39_1/mul_1", "op": "Mul", "input": ["StatefulPartitionedCall/functional_9_1/conv2d_transpose_39_1/strided_slice_2", "StatefulPartitionedCall/functional_9_1/conv2d_transpose_39_1/mul_1/y"], "attr": {"T": {"type": "DT_INT32"}}}, {"name": "StatefulPartitionedCall/functional_9_1/conv2d_transpose_39_1/mul", "op": "Mul", "input": ["StatefulPartitionedCall/functional_9_1/conv2d_transpose_39_1/strided_slice_1", "StatefulPartitionedCall/functional_9_1/conv2d_transpose_39_1/mul/y"], "attr": {"T": {"type": "DT_INT32"}}}, {"name": "StatefulPartitionedCall/functional_9_1/conv2d_transpose_39_1/conv_transpose/input_sizes", "op": "Pack", "input": ["StatefulPartitionedCall/functional_9_1/conv2d_transpose_39_1/strided_slice", "StatefulPartitionedCall/functional_9_1/conv2d_transpose_39_1/mul", "StatefulPartitionedCall/functional_9_1/conv2d_transpose_39_1/mul_1", "StatefulPartitionedCall/functional_9_1/conv2d_transpose_39_1/conv_transpose/input_sizes/3"], "attr": {"axis": {"i": "0"}, "T": {"type": "DT_INT32"}, "N": {"i": "4"}}}, {"name": "StatefulPartitionedCall/functional_9_1/conv2d_transpose_39_1/conv_transpose", "op": "Conv2DBackpropInput", "input": ["StatefulPartitionedCall/functional_9_1/conv2d_transpose_39_1/conv_transpose/input_sizes", "StatefulPartitionedCall/functional_9_1/conv2d_transpose_39_1/conv_transpose/ReadVariableOp", "StatefulPartitionedCall/functional_9_1/re_lu_57_1/Relu"], "attr": {"T": {"type": "DT_FLOAT"}, "use_cudnn_on_gpu": {"b": true}, "padding": {"s": "U0FNRQ=="}, "explicit_paddings": {"list": {}}, "strides": {"list": {"i": ["1", "2", "2", "1"]}}, "data_format": {"s": "TkhXQw=="}, "dilations": {"list": {"i": ["1", "1", "1", "1"]}}}}, {"name": "StatefulPartitionedCall/functional_9_1/conv2d_transpose_39_1/add", "op": "AddV2", "input": ["StatefulPartitionedCall/functional_9_1/conv2d_transpose_39_1/conv_transpose", "StatefulPartitionedCall/functional_9_1/conv2d_transpose_39_1/Reshape"], "attr": {"T": {"type": "DT_FLOAT"}}}, {"name": "Identity_2", "op": "Identity", "input": ["StatefulPartitionedCall/functional_9_1/conv2d_transpose_39_1/add"], "attr": {"T": {"type": "DT_FLOAT"}}}, {"name": "StatefulPartitionedCall/functional_9_1/concatenate_9_1/concat", "op": "ConcatV2", "input": ["StatefulPartitionedCall/functional_9_1/conv2d_transpose_36_1/add", "StatefulPartitionedCall/functional_9_1/conv2d_transpose_37_1/add", "StatefulPartitionedCall/functional_9_1/conv2d_transpose_39_1/add", "StatefulPartitionedCall/functional_9_1/concatenate_9_1/concat/axis"], "attr": {"N": {"i": "3"}, "T": {"type": "DT_FLOAT"}, "Tidx": {"type": "DT_INT32"}}}, {"name": "StatefulPartitionedCall/functional_9_1/depthwise_conv2d_18_1/depthwise", "op": "FusedDepthwiseConv2dNative", "input": ["StatefulPartitionedCall/functional_9_1/concatenate_9_1/concat", "StatefulPartitionedCall/functional_9_1/depthwise_conv2d_18_1/depthwise/ReadVariableOp", "StatefulPartitionedCall/functional_9_1/depthwise_conv2d_18_1/Reshape"], "attr": {"num_args": {"i": "1"}, "strides": {"list": {"i": ["1", "1", "1", "1"]}}, "data_format": {"s": "TkhXQw=="}, "explicit_paddings": {"list": {}}, "padding": {"s": "U0FNRQ=="}, "fused_ops": {"list": {"s": ["Qmlhc0FkZA==", "UmVsdQ=="]}}, "dilations": {"list": {"i": ["1", "1", "1", "1"]}}, "T": {"type": "DT_FLOAT"}}}, {"name": "StatefulPartitionedCall/functional_9_1/depthwise_conv2d_19_1/depthwise", "op": "FusedDepthwiseConv2dNative", "input": ["StatefulPartitionedCall/functional_9_1/depthwise_conv2d_18_1/depthwise", "StatefulPartitionedCall/functional_9_1/depthwise_conv2d_19_1/depthwise/ReadVariableOp", "StatefulPartitionedCall/functional_9_1/depthwise_conv2d_19_1/Reshape"], "attr": {"dilations": {"list": {"i": ["1", "1", "1", "1"]}}, "fused_ops": {"list": {"s": ["Qmlhc0FkZA==", "UmVsdQ=="]}}, "explicit_paddings": {"list": {}}, "padding": {"s": "U0FNRQ=="}, "T": {"type": "DT_FLOAT"}, "strides": {"list": {"i": ["1", "1", "1", "1"]}}, "num_args": {"i": "1"}, "data_format": {"s": "TkhXQw=="}}}, {"name": "StatefulPartitionedCall/functional_9_1/conv2d_126_1/add", "op": "_FusedConv2D", "input": ["StatefulPartitionedCall/functional_9_1/depthwise_conv2d_19_1/depthwise", "StatefulPartitionedCall/functional_9_1/conv2d_126_1/convolution/ReadVariableOp", "StatefulPartitionedCall/functional_9_1/conv2d_126_1/Reshape"], "device": "/device:CPU:0", "attr": {"num_args": {"i": "1"}, "TArgs": {"list": {"type": ["DT_FLOAT"]}}, "leakyrelu_alpha": {"f": 0.2}, "fused_ops": {"list": {"s": ["Qmlhc0FkZA=="]}}, "padding": {"s": "U0FNRQ=="}, "explicit_paddings": {"list": {}}, "strides": {"list": {"i": ["1", "1", "1", "1"]}}, "num_host_args": {"i": "0"}, "filter_format": {"s": "SFdJTw=="}, "T": {"type": "DT_FLOAT"}, "use_cudnn_on_gpu": {"b": true}, "data_format": {"s": "TkhXQw=="}, "epsilon": {"f": 0.0}, "dilations": {"list": {"i": ["1", "1", "1", "1"]}}}}, {"name": "Identity_3", "op": "Identity", "input": ["StatefulPartitionedCall/functional_9_1/conv2d_126_1/add"], "attr": {"T": {"type": "DT_FLOAT"}}}], "library": {}, "versions": {"producer": 1882}}, "weightsManifest": [{"paths": ["group1-shard1of1.bin"], "weights": [{"name": "StatefulPartitionedCall/functional_9_1/conv2d_transpose_36_1/strided_slice/stack", "shape": [1], "dtype": "int32"}, {"name": "StatefulPartitionedCall/functional_9_1/conv2d_transpose_36_1/strided_slice/stack_1", "shape": [1], "dtype": "int32"}, {"name": "StatefulPartitionedCall/functional_9_1/conv2d_transpose_36_1/strided_slice/stack_2", "shape": [1], "dtype": "int32"}, {"name": "StatefulPartitionedCall/functional_9_1/conv2d_transpose_36_1/strided_slice_1/stack", "shape": [1], "dtype": "int32"}, {"name": "StatefulPartitionedCall/functional_9_1/conv2d_transpose_36_1/strided_slice_1/stack_1", "shape": [1], "dtype": "int32"}, {"name": "StatefulPartitionedCall/functional_9_1/conv2d_transpose_36_1/strided_slice_1/stack_2", "shape": [1], "dtype": "int32"}, {"name": "StatefulPartitionedCall/functional_9_1/conv2d_transpose_36_1/mul/y", "shape": [], "dtype": "int32"}, {"name": "StatefulPartitionedCall/functional_9_1/conv2d_transpose_36_1/strided_slice_2/stack", "shape": [1], "dtype": "int32"}, {"name": "StatefulPartitionedCall/functional_9_1/conv2d_transpose_36_1/strided_slice_2/stack_1", "shape": [1], "dtype": "int32"}, {"name": "StatefulPartitionedCall/functional_9_1/conv2d_transpose_36_1/strided_slice_2/stack_2", "shape": [1], "dtype": "int32"}, {"name": "StatefulPartitionedCall/functional_9_1/conv2d_transpose_36_1/mul_1/y", "shape": [], "dtype": "int32"}, {"name": "StatefulPartitionedCall/functional_9_1/conv2d_transpose_36_1/conv_transpose/input_sizes/3", "shape": [], "dtype": "int32"}, {"name": "StatefulPartitionedCall/functional_9_1/conv2d_transpose_36_1/conv_transpose/ReadVariableOp", "shape": [4, 4, 1, 1], "dtype": "float32"}, {"name": "StatefulPartitionedCall/functional_9_1/conv2d_122_1/convolution/ReadVariableOp", "shape": [1, 1, 16, 1], "dtype": "float32"}, {"name": "StatefulPartitionedCall/functional_9_1/conv2d_122_1/Reshape", "shape": [1, 1, 1, 1], "dtype": "float32"}, {"name": "StatefulPartitionedCall/functional_9_1/conv2d_transpose_36_1/Reshape", "shape": [1, 1, 1, 1], "dtype": "float32"}, {"name": "StatefulPartitionedCall/functional_9_1/conv2d_transpose_37_1/strided_slice/stack", "shape": [1], "dtype": "int32"}, {"name": "StatefulPartitionedCall/functional_9_1/conv2d_transpose_37_1/strided_slice/stack_1", "shape": [1], "dtype": "int32"}, {"name": "StatefulPartitionedCall/functional_9_1/conv2d_transpose_37_1/strided_slice/stack_2", "shape": [1], "dtype": "int32"}, {"name": "StatefulPartitionedCall/functional_9_1/conv2d_transpose_37_1/strided_slice_1/stack", "shape": [1], "dtype": "int32"}, {"name": "StatefulPartitionedCall/functional_9_1/conv2d_transpose_37_1/strided_slice_1/stack_1", "shape": [1], "dtype": "int32"}, {"name": "StatefulPartitionedCall/functional_9_1/conv2d_transpose_37_1/strided_slice_1/stack_2", "shape": [1], "dtype": "int32"}, {"name": "StatefulPartitionedCall/functional_9_1/conv2d_transpose_37_1/mul/y", "shape": [], "dtype": "int32"}, {"name": "StatefulPartitionedCall/functional_9_1/conv2d_transpose_37_1/strided_slice_2/stack", "shape": [1], "dtype": "int32"}, {"name": "StatefulPartitionedCall/functional_9_1/conv2d_transpose_37_1/strided_slice_2/stack_1", "shape": [1], "dtype": "int32"}, {"name": "StatefulPartitionedCall/functional_9_1/conv2d_transpose_37_1/strided_slice_2/stack_2", "shape": [1], "dtype": "int32"}, {"name": "StatefulPartitionedCall/functional_9_1/conv2d_transpose_37_1/mul_1/y", "shape": [], "dtype": "int32"}, {"name": "StatefulPartitionedCall/functional_9_1/conv2d_transpose_37_1/conv_transpose/input_sizes/3", "shape": [], "dtype": "int32"}, {"name": "StatefulPartitionedCall/functional_9_1/conv2d_transpose_37_1/conv_transpose/ReadVariableOp", "shape": [4, 4, 1, 1], "dtype": "float32"}, {"name": "StatefulPartitionedCall/functional_9_1/conv2d_123_1/convolution/ReadVariableOp", "shape": [1, 1, 32, 1], "dtype": "float32"}, {"name": "StatefulPartitionedCall/functional_9_1/conv2d_123_1/Reshape", "shape": [1, 1, 1, 1], "dtype": "float32"}, {"name": "StatefulPartitionedCall/functional_9_1/conv2d_transpose_37_1/Reshape", "shape": [1, 1, 1, 1], "dtype": "float32"}, {"name": "StatefulPartitionedCall/functional_9_1/conv2d_transpose_39_1/strided_slice/stack", "shape": [1], "dtype": "int32"}, {"name": "StatefulPartitionedCall/functional_9_1/conv2d_transpose_39_1/strided_slice/stack_1", "shape": [1], "dtype": "int32"}, {"name": "StatefulPartitionedCall/functional_9_1/conv2d_transpose_39_1/strided_slice/stack_2", "shape": [1], "dtype": "int32"}, {"name": "StatefulPartitionedCall/functional_9_1/conv2d_transpose_39_1/strided_slice_1/stack", "shape": [1], "dtype": "int32"}, {"name": "StatefulPartitionedCall/functional_9_1/conv2d_transpose_39_1/strided_slice_1/stack_1", "shape": [1], "dtype": "int32"}, {"name": "StatefulPartitionedCall/functional_9_1/conv2d_transpose_39_1/strided_slice_1/stack_2", "shape": [1], "dtype": "int32"}, {"name": "StatefulPartitionedCall/functional_9_1/conv2d_transpose_39_1/mul/y", "shape": [], "dtype": "int32"}, {"name": "StatefulPartitionedCall/functional_9_1/conv2d_transpose_39_1/strided_slice_2/stack", "shape": [1], "dtype": "int32"}, {"name": "StatefulPartitionedCall/functional_9_1/conv2d_transpose_39_1/strided_slice_2/stack_1", "shape": [1], "dtype": "int32"}, {"name": "StatefulPartitionedCall/functional_9_1/conv2d_transpose_39_1/strided_slice_2/stack_2", "shape": [1], "dtype": "int32"}, {"name": "StatefulPartitionedCall/functional_9_1/conv2d_transpose_39_1/mul_1/y", "shape": [], "dtype": "int32"}, {"name": "StatefulPartitionedCall/functional_9_1/conv2d_transpose_39_1/conv_transpose/input_sizes/3", "shape": [], "dtype": "int32"}, {"name": "StatefulPartitionedCall/functional_9_1/conv2d_transpose_39_1/conv_transpose/ReadVariableOp", "shape": [4, 4, 1, 1], "dtype": "float32"}, {"name": "StatefulPartitionedCall/functional_9_1/conv2d_transpose_38_1/strided_slice/stack", "shape": [1], "dtype": "int32"}, {"name": "StatefulPartitionedCall/functional_9_1/conv2d_transpose_38_1/strided_slice/stack_1", "shape": [1], "dtype": "int32"}, {"name": "StatefulPartitionedCall/functional_9_1/conv2d_transpose_38_1/strided_slice/stack_2", "shape": [1], "dtype": "int32"}, {"name": "StatefulPartitionedCall/functional_9_1/conv2d_transpose_38_1/strided_slice_1/stack", "shape": [1], "dtype": "int32"}, {"name": "StatefulPartitionedCall/functional_9_1/conv2d_transpose_38_1/strided_slice_1/stack_1", "shape": [1], "dtype": "int32"}, {"name": "StatefulPartitionedCall/functional_9_1/conv2d_transpose_38_1/strided_slice_1/stack_2", "shape": [1], "dtype": "int32"}, {"name": "StatefulPartitionedCall/functional_9_1/conv2d_transpose_38_1/mul/y", "shape": [], "dtype": "int32"}, {"name": "StatefulPartitionedCall/functional_9_1/conv2d_transpose_38_1/strided_slice_2/stack", "shape": [1], "dtype": "int32"}, {"name": "StatefulPartitionedCall/functional_9_1/conv2d_transpose_38_1/strided_slice_2/stack_1", "shape": [1], "dtype": "int32"}, {"name": "StatefulPartitionedCall/functional_9_1/conv2d_transpose_38_1/strided_slice_2/stack_2", "shape": [1], "dtype": "int32"}, {"name": "StatefulPartitionedCall/functional_9_1/conv2d_transpose_38_1/mul_1/y", "shape": [], "dtype": "int32"}, {"name": "StatefulPartitionedCall/functional_9_1/conv2d_transpose_38_1/conv_transpose/input_sizes/3", "shape": [], "dtype": "int32"}, {"name": "StatefulPartitionedCall/functional_9_1/conv2d_transpose_38_1/conv_transpose/ReadVariableOp", "shape": [4, 4, 16, 16], "dtype": "float32"}, {"name": "StatefulPartitionedCall/functional_9_1/conv2d_116_1/convolution/ReadVariableOp", "shape": [1, 1, 16, 32], "dtype": "float32"}, {"name": "StatefulPartitionedCall/functional_9_1/conv2d_116_1/Reshape", "shape": [1, 1, 1, 32], "dtype": "float32"}, {"name": "StatefulPartitionedCall/functional_9_1/batch_normalization_74_1/batchnorm/mul", "shape": [32], "dtype": "float32"}, {"name": "StatefulPartitionedCall/functional_9_1/batch_normalization_74_1/batchnorm/sub", "shape": [32], "dtype": "float32"}, {"name": "StatefulPartitionedCall/functional_9_1/conv2d_120_1/convolution/ReadVariableOp", "shape": [3, 3, 32, 48], "dtype": "float32"}, {"name": "StatefulPartitionedCall/functional_9_1/conv2d_120_1/Reshape", "shape": [1, 1, 1, 48], "dtype": "float32"}, {"name": "StatefulPartitionedCall/functional_9_1/batch_normalization_78_1/batchnorm/mul", "shape": [48], "dtype": "float32"}, {"name": "StatefulPartitionedCall/functional_9_1/batch_normalization_78_1/batchnorm/sub", "shape": [48], "dtype": "float32"}, {"name": "StatefulPartitionedCall/functional_9_1/conv2d_121_1/convolution/ReadVariableOp", "shape": [3, 3, 48, 48], "dtype": "float32"}, {"name": "StatefulPartitionedCall/functional_9_1/conv2d_121_1/Reshape", "shape": [1, 1, 1, 48], "dtype": "float32"}, {"name": "StatefulPartitionedCall/functional_9_1/batch_normalization_79_1/batchnorm/mul", "shape": [48], "dtype": "float32"}, {"name": "StatefulPartitionedCall/functional_9_1/batch_normalization_79_1/batchnorm/sub", "shape": [48], "dtype": "float32"}, {"name": "StatefulPartitionedCall/functional_9_1/conv2d_114_1/convolution/ReadVariableOp", "shape": [3, 3, 3, 16], "dtype": "float32"}, {"name": "StatefulPartitionedCall/functional_9_1/conv2d_114_1/Reshape", "shape": [1, 1, 1, 16], "dtype": "float32"}, {"name": "StatefulPartitionedCall/functional_9_1/batch_normalization_72_1/batchnorm/mul", "shape": [16], "dtype": "float32"}, {"name": "StatefulPartitionedCall/functional_9_1/batch_normalization_72_1/batchnorm/sub", "shape": [16], "dtype": "float32"}, {"name": "StatefulPartitionedCall/functional_9_1/conv2d_115_1/convolution/ReadVariableOp", "shape": [3, 3, 16, 16], "dtype": "float32"}, {"name": "StatefulPartitionedCall/functional_9_1/conv2d_115_1/Reshape", "shape": [1, 1, 1, 16], "dtype": "float32"}, {"name": "StatefulPartitionedCall/functional_9_1/batch_normalization_73_1/batchnorm/mul", "shape": [16], "dtype": "float32"}, {"name": "StatefulPartitionedCall/functional_9_1/batch_normalization_73_1/batchnorm/sub", "shape": [16], "dtype": "float32"}, {"name": "StatefulPartitionedCall/functional_9_1/conv2d_117_1/convolution/ReadVariableOp", "shape": [3, 3, 16, 32], "dtype": "float32"}, {"name": "StatefulPartitionedCall/functional_9_1/conv2d_117_1/Reshape", "shape": [1, 1, 1, 32], "dtype": "float32"}, {"name": "StatefulPartitionedCall/functional_9_1/batch_normalization_75_1/batchnorm/mul", "shape": [32], "dtype": "float32"}, {"name": "StatefulPartitionedCall/functional_9_1/batch_normalization_75_1/batchnorm/sub", "shape": [32], "dtype": "float32"}, {"name": "StatefulPartitionedCall/functional_9_1/conv2d_118_1/convolution/ReadVariableOp", "shape": [3, 3, 32, 32], "dtype": "float32"}, {"name": "StatefulPartitionedCall/functional_9_1/conv2d_118_1/Reshape", "shape": [1, 1, 1, 32], "dtype": "float32"}, {"name": "StatefulPartitionedCall/functional_9_1/batch_normalization_76_1/batchnorm/mul", "shape": [32], "dtype": "float32"}, {"name": "StatefulPartitionedCall/functional_9_1/batch_normalization_76_1/batchnorm/sub", "shape": [32], "dtype": "float32"}, {"name": "StatefulPartitionedCall/functional_9_1/conv2d_119_1/convolution/ReadVariableOp", "shape": [1, 1, 32, 48], "dtype": "float32"}, {"name": "StatefulPartitionedCall/functional_9_1/conv2d_119_1/Reshape", "shape": [1, 1, 1, 48], "dtype": "float32"}, {"name": "StatefulPartitionedCall/functional_9_1/batch_normalization_77_1/batchnorm/mul", "shape": [48], "dtype": "float32"}, {"name": "StatefulPartitionedCall/functional_9_1/batch_normalization_77_1/batchnorm/sub", "shape": [48], "dtype": "float32"}, {"name": "StatefulPartitionedCall/functional_9_1/conv2d_124_1/convolution/ReadVariableOp", "shape": [1, 1, 48, 16], "dtype": "float32"}, {"name": "StatefulPartitionedCall/functional_9_1/conv2d_124_1/Reshape", "shape": [1, 1, 1, 16], "dtype": "float32"}, {"name": "StatefulPartitionedCall/functional_9_1/conv2d_transpose_38_1/Reshape", "shape": [1, 1, 1, 16], "dtype": "float32"}, {"name": "StatefulPartitionedCall/functional_9_1/conv2d_125_1/convolution/ReadVariableOp", "shape": [1, 1, 16, 1], "dtype": "float32"}, {"name": "StatefulPartitionedCall/functional_9_1/conv2d_125_1/Reshape", "shape": [1, 1, 1, 1], "dtype": "float32"}, {"name": "StatefulPartitionedCall/functional_9_1/conv2d_transpose_39_1/Reshape", "shape": [1, 1, 1, 1], "dtype": "float32"}, {"name": "StatefulPartitionedCall/functional_9_1/concatenate_9_1/concat/axis", "shape": [], "dtype": "int32"}, {"name": "StatefulPartitionedCall/functional_9_1/depthwise_conv2d_18_1/depthwise/ReadVariableOp", "shape": [3, 3, 3, 8], "dtype": "float32"}, {"name": "StatefulPartitionedCall/functional_9_1/depthwise_conv2d_18_1/Reshape", "shape": [1, 1, 1, 24], "dtype": "float32"}, {"name": "StatefulPartitionedCall/functional_9_1/depthwise_conv2d_19_1/depthwise/ReadVariableOp", "shape": [3, 3, 24, 1], "dtype": "float32"}, {"name": "StatefulPartitionedCall/functional_9_1/depthwise_conv2d_19_1/Reshape", "shape": [1, 1, 1, 24], "dtype": "float32"}, {"name": "StatefulPartitionedCall/functional_9_1/conv2d_126_1/convolution/ReadVariableOp", "shape": [1, 1, 24, 1], "dtype": "float32"}, {"name": "StatefulPartitionedCall/functional_9_1/conv2d_126_1/Reshape", "shape": [1, 1, 1, 1], "dtype": "float32"}]}]}